backend/models/sample_model_0.pth (torch, 40651 bytes, 22 tensors)

conv_block_1.0.weight f4 [10, 3, 3, 3]
0	0x3e123a83	0.14280133
1	0x3e255fc1	0.16149808
2	0xbd3208c6	-0.0434654
3	0x3e31459f	0.17311715
4	0xbd3f147a	-0.046650387
5	0x3d058d8f	0.032605704
6	0xbda04218	-0.078251064
7	0x3e00706a	0.12542883
8	0x3e30556b	0.17220084
9	0xbe08a2de	-0.13343379
10	0x3e348634	0.1762932
11	0x3d17e23e	0.037080996
12	0x3e1bb4bd	0.15205665
13	0x3d298329	0.04138485
14	0x3dc886c4	0.097913295
15	0xbc06c236	-0.008225014
16	0x3e2e47ec	0.17019624
17	0x3cfd0c48	0.030889645
18	0xbdc16e2d	-0.094448425
19	0x3d2eda24	0.042688504
20	0xbdbab51f	-0.09116577
21	0xbc9812b5	-0.018563608
22	0xbd9c8a9f	-0.076436274
23	0x3e021df5	0.1270674
24	0xbe185102	-0.14874652
25	0xbdb42d51	-0.08797706
26	0xbd7451c7	-0.0596483
27	0xbdcbe492	-0.09955706
28	0x3cd4ed8b	0.025992176
29	0xbe31b046	-0.17352399
30	0x3e46104f	0.19342159
31	0xbe165f06	-0.14684686
32	0x3e2b8ca6	0.16752872
33	0x3d343187	0.043992545
34	0xbd2b8443	-0.04187418
35	0x3e073ec9	0.13207544
36	0x3d62918a	0.055314578
37	0x3e24d3aa	0.16096368
38	0x3cc18654	0.023623623
39	0xbce4c59f	-0.027926264
40	0x3d81c573	0.063364886
41	0xbd412ee3	-0.047163855
42	0x3dca845a	0.09888525
43	0x3e3ce416	0.18446383
44	0x3dec002b	0.115234695
45	0xbdb35c66	-0.08757858
46	0x3dd92a64	0.106037885
47	0x3cf77964	0.03020925
48	0x3dca4106	0.098756835
49	0xbde922c8	-0.11383587
50	0xbe42d48a	-0.1902639
51	0xbd9b11c6	-0.075717494
52	0xbe14dd92	-0.14537647
53	0x3e1f7c7c	0.15574831
54	0x3d4c7610	0.04991728
55	0x3dab70a5	0.083710946
56	0x3d98b958	0.074572265
57	0xbbd0cbbc	-0.0063719433
58	0x3e1b152e	0.15144798
59	0xbe02ffc8	-0.12792885
60	0x3c661f5e	0.014045564
61	0xbe016603	-0.1263657
62	0x3d8e4252	0.06946243
63	0xbd978592	-0.073985234
64	0x3d6cc199	0.057801817
65	0xbd140373	-0.036136102
66	0x3e146250	0.14490628
67	0xbe020ac7	-0.12699424
68	0xbdf8c8d9	-0.12147684
69	0xbe008a43	-0.12552743
70	0x3e2877aa	0.16451898
71	0x3d6c10aa	0.05763308
72	0x3e3bdf8e	0.18346998
73	0xbe22b398	-0.15888822
74	0xbe4452b5	-0.19172175
75	0xbe26db82	-0.16294673
76	0xbe0aa01d	-0.13537641
77	0x3da1128f	0.07864868
78	0x3d8a5eaf	0.06756341
79	0x3e2706d2	0.16311195
80	0xbdcd7197	-0.10031431
81	0xbe0bdd92	-0.13658741
82	0x3dbc726b	0.09201511
83	0xbdbdb9b2	-0.09263934
84	0x3dd96c1a	0.10616322
85	0xbd72e739	-0.059302542
86	0x3db7309c	0.089448184
87	0xbe2d64a6	-0.16932926
88	0xbded0f71	-0.11575211
89	0x3cc7ed25	0.024405072
90	0x3d6aad41	0.057294134
91	0xbd15b121	-0.036545876
92	0x3e04839f	0.12940834
93	0x3e10b821	0.1413274
94	0xbe023756	-0.12716421
95	0xbdb4c21d	-0.08826087
96	0x3e37c011	0.17944361
97	0xbd596a5e	-0.053079955
98	0xbd7e5805	-0.06209566
99	0xbe4241dc	-0.18970436
100	0xbdf1e141	-0.11810542
101	0x3d5989fc	0.053110108
102	0xbd237306	-0.039904617
103	0xbe142dee	-0.14470646
104	0x3c87f421	0.016595902
105	0xbe09cb86	-0.13456544
106	0xbe2269c7	-0.15860663
107	0xbddbaaf8	-0.10725969
108	0xbe1ab5b9	-0.15108384
109	0xbdfdd081	-0.123932846
110	0x3e417588	0.18892491
111	0x3d3aaa1c	0.045572385
112	0x3d4ecda1	0.05048907
113	0xbe375369	-0.17902912
114	0xbe0a9cdd	-0.13536401
115	0xbd7c2c5a	-0.061565734
116	0x3d2bdee8	0.041960627
117	0xbe293a7f	-0.1652622
118	0xbdb04030	-0.08605993
119	0xbdf32f3d	-0.11874244
120	0xbbbd1da6	-0.0057713566
121	0xbdc332bd	-0.09531162
122	0xbc788542	-0.01516849
123	0xbe16260d	-0.14662953
124	0xbe1624bf	-0.14662455
125	0xbdd28514	-0.10279289
126	0xbdb9b0e5	-0.09066943
127	0xbe3b95a0	-0.18318796
128	0x3e0768b0	0.13223529
129	0xbd724d51	-0.059155766
130	0x3e0f4107	0.1398965
131	0x3d324790	0.04352528
132	0xbe3d0e75	-0.18462546
133	0x3deba6b7	0.11506408
134	0xbd594863	-0.05304755
135	0xbdaa4f19	-0.08315868
136	0xbe26d954	-0.16293842
137	0xbe473eec	-0.19457597
138	0x3d67e63d	0.056616057
139	0xbd28eb19	-0.04123983
140	0x3da33dcd	0.07970772
141	0xbe25e21e	-0.16199538
142	0x3e0a0a52	0.134805
143	0xbe150adb	-0.14554922
144	0xbd321e1a	-0.04348574
145	0x3d15ed64	0.036603346
146	0x3dc561b7	0.09637778
147	0x3e1f716e	0.15570614
148	0x3e343819	0.17599525
149	0xbe1738ef	-0.14767812
150	0x3d33e9af	0.04392403
151	0xbdba5c86	-0.09099679
152	0xbcd0549a	-0.025430966
153	0xbe165cad	-0.1468379
154	0x3e3286c8	0.17434227
155	0xbe142b5b	-0.14469664
156	0x3de01ae0	0.10942626
157	0x3d8da745	0.0691667
158	0x3d84bade	0.064809546
159	0xbdd278d8	-0.10276955
160	0x3e2bfb0b	0.16794984
161	0x3d17792f	0.036980804
162	0x3cd6482c	0.026157461
163	0xbe297338	-0.16547859
164	0x3db10255	0.08643023
165	0xbcac6708	-0.021045223
166	0xbd9c1a39	-0.07622189
167	0x3e36a3ca	0.17835918
168	0x3d5b8ca3	0.05360092
169	0xbdc18347	-0.09448867
170	0xbdb40ae8	-0.08791143
171	0xbb8a7e11	-0.004226454
172	0x3de39df1	0.11114109
173	0xbd32fe8d	-0.04369979
174	0xbdd6be0d	-0.10485468
175	0xbd600833	-0.05469532
176	0xbdfd1157	-0.12356823
177	0x3da759e3	0.081714414
178	0x3e2bd90d	0.16782017
179	0xbe27f8db	-0.16403525
180	0x3d618467	0.05505791
181	0x3ddf637c	0.10907647
182	0x3d4ead88	0.05045846
183	0xbd624998	-0.055245966
184	0x3dedf918	0.116197765
185	0x3dfb815e	0.12280534
186	0x3dbc3f69	0.09191782
187	0xbc1de7d3	-0.009637791
188	0xbcf336f0	-0.029689282
189	0x3cb2b61b	0.02181535
190	0xbd27ce04	-0.040967956
191	0xbd8adc01	-0.06780244
192	0x3dfdc412	0.12390913
193	0x3e1f48f0	0.15555167
194	0xbcfd2d74	-0.030905463
195	0xbd661414	-0.05617149
196	0xbbe96a58	-0.007123273
197	0xbc340c0e	-0.010989202
198	0x3d64c870	0.055855215
199	0x3d606c45	0.054790754
200	0xbe3942c1	-0.18091871
201	0xbd8c1202	-0.06839372
202	0x3e1dc670	0.15407729
203	0x3d928e89	0.07156093
204	0xbcbdbac2	-0.023160342
205	0xbe070760	-0.13186407
206	0xbde928f7	-0.113847665
207	0xbe2a5d5a	-0.16637173
208	0xbd857a83	-0.06517508
209	0x3d56697f	0.052346703
210	0x3df7d82e	0.1210178
211	0x3da608d1	0.0810715
212	0xbe2ff01c	-0.17181438
213	0xbe06239d	-0.13099523
214	0xbd46f100	-0.04856968
215	0x3e41aea6	0.1891428
216	0x3ca02cca	0.019552607
217	0xbd884bbf	-0.066550724
218	0x3d8d0e5b	0.06887504
219	0xbd9369eb	-0.071979366
220	0xbe0ec96e	-0.13944027
221	0x3dfa0dd8	0.12209672
222	0xbdaa14d8	-0.08304757
223	0xbd8053b9	-0.06265969
224	0xbe668fce	-0.22515795
225	0x3dfe7c14	0.1242601
226	0x3e14d35a	0.14533749
227	0x3d95244c	0.07282314
228	0xbe01eb05	-0.12687309
229	0xbe39b7cc	-0.18136519
230	0xbe1d03ad	-0.15333433
231	0x3e1c5c04	0.15269476
232	0x3db8e242	0.0902753
233	0x3e236ebc	0.1596021
234	0x3daffe8a	0.08593471
235	0x3d2ce09a	0.042206384
236	0xbb8e253f	-0.004337936
237	0xbe1bef54	-0.15228015
238	0xbe25a361	-0.16175605
239	0xbe3b4168	-0.18286669
240	0x3d96dc83	0.07366278
241	0xbddfaa6b	-0.109211765
242	0xbd68d7d0	-0.05684644
243	0xbdc7a870	-0.09748924
244	0xbcbbb5ed	-0.022913897
245	0xbe3c3737	-0.18380438
246	0xbe010c00	-0.12602234
247	0x3d82e686	0.06391625
248	0xbd9e67ef	-0.077346675
249	0x3ddb6729	0.107130356
250	0xbd9847de	-0.074355826
251	0xbe0c4487	-0.13698016
252	0xbc7cf57b	-0.0154393865
253	0xbdad4b18	-0.084615886
254	0xbd9d0dcd	-0.07668648
255	0xbe382ba8	-0.17985404

conv_block_1.0.bias f4 [10]
0	0x3dbf0b0a	0.093282774
1	0xbe3b7d8e	-0.18309614
2	0x3dfd4dc8	0.12368351
3	0x3e131a18	0.14365423
4	0x3e2efeeb	0.17089431
5	0xbd91f7e4	-0.071273595
6	0xbe1d33f5	-0.15351851
7	0x3cea6f8c	0.028617643
8	0x3de8a99b	0.11360475
9	0xbe4c4b19	-0.19950522

conv_block_1.1.weight f4 [10]
0	0x3f821640	1.016304
1	0x3f7af335	0.98027354
2	0x3f818864	1.0119748
3	0x3f817a08	1.0115366
4	0x3f7f16f5	0.99644405
5	0x3f8206a3	1.0158275
6	0x3f7ef046	0.9958538
7	0x3f7c0eaa	0.98459876
8	0x3f7fef49	0.99974495
9	0x3f805629	1.0026294

conv_block_1.1.bias f4 [10]
0	0xbce8590c	-0.028362773
1	0xbd13d939	-0.03609583
2	0xbc2359ea	-0.009970168
3	0x3b6fc985	0.003658862
4	0x3b9f3cdb	0.0048595495
5	0x3c192acd	0.009348583
6	0x3c331563	0.010930392
7	0xbd018494	-0.031620577
8	0xbbdeb3a7	-0.0067963186
9	0x3b3813d8	0.0028088

conv_block_1.1.running_mean f4 [10]
0	0x3f0c6d42	0.54854214
1	0x3d8067d2	0.06269802
2	0x3dc742e4	0.09729555
3	0xbe6e7238	-0.23285758
4	0xbee77ffd	-0.45214835
5	0xbe4da18c	-0.20081156
6	0xbdd934dd	-0.10605786
7	0xbd7670e8	-0.06016627
8	0xbe2c0187	-0.16797458
9	0xbf26d443	-0.65167636

conv_block_1.1.running_var f4 [10]
0	0x3d3715e6	0.04469862
1	0x3c803020	0.015647948
2	0x3b993006	0.0046749143
3	0x3d4b4c5f	0.04963338
4	0x3dc98fe8	0.09841901
5	0x3c05b567	0.0081609255
6	0x3bc90313	0.0061343997
7	0x3b97835c	0.0046238136
8	0x3cc5ce76	0.0241463
9	0x3d3cde55	0.04611047

conv_block_1.3.weight f4 [10, 10, 3, 3]
0	0xbd243f7b	-0.040099602
1	0xbd647bfc	-0.055782303
2	0x3c8684f9	0.016420828
3	0xbd6ad7b0	-0.057334602
4	0xbd5cde4e	-0.053922944
5	0xbcacd2ed	-0.021096671
6	0xbdd2564e	-0.102703676
7	0x3daef1ff	0.08542251
8	0x3dc1619a	0.09442444
9	0xb9369502	-0.00017412382
10	0x3b92c024	0.0044784714
11	0xbcd3ef70	-0.025871009
12	0xbd952096	-0.07281606
13	0xbdca725c	-0.098850936
14	0x3d92780d	0.07151804
15	0xbd0287da	-0.03186784
16	0xbd42fcd9	-0.047604416
17	0x3c9565d2	0.018237028
18	0xbd2ebdc9	-0.042661462
19	0xbd5a0e9a	-0.05323658
20	0xbc69de48	-0.014274187
21	0xbce8221a	-0.028336573
22	0xbd87e7a1	-0.066359766
23	0xbdb131c4	-0.0865207
24	0xbdb5719f	-0.08859562
25	0x3d573322	0.052539
26	0xbd9e8bc1	-0.077415
27	0x3d389eb3	0.045073222
28	0xbce998e1	-0.028515281
29	0x3b8da7e3	0.004322992
30	0x3dd81b1e	0.10552047
31	0x3d5a35e3	0.053274047
32	0xbdaa8adb	-0.08327266
33	0x3d26624d	0.04062109
34	0x3de5a003	0.112121604
35	0x3d3f16e1	0.04665268
36	0x3da14af6	0.07875626
37	0x3dd823ea	0.10553725
38	0xbcd9cb92	-0.026586328
39	0x3cbb0e2b	0.022833904
40	0xbd8a30e9	-0.0674761
41	0xbcbd8805	-0.023136148
42	0x3d9b6719	0.07588024
43	0x3d6a0c5e	0.0571407
44	0xbd6d82cd	-0.05798607
45	0xbe054e65	-0.13018186
46	0xbdcde136	-0.10052721
47	0xbde6c223	-0.112674974
48	0xbde2760f	-0.11057674
49	0xbd61cb03	-0.055125248
50	0x3d41853f	0.047246214
51	0x3cb110b3	0.021614408
52	0xbdcf51c5	-0.10123018
53	0xbde95f37	-0.11395114
54	0x3cf5e3e0	0.030015886
55	0xbd9519aa	-0.07280286
56	0xbbd8647f	-0.006603777
57	0x3d1e2e42	0.038618334
58	0xbcbf0295	-0.02331666
59	0x3cacd200	0.02109623
60	0xbb15ec99	-0.002287662
61	0x3bd32f9b	0.006444884
62	0xbccdd51f	-0.025126038
63	0xbde31024	-0.11087063
64	0xbdd2488d	-0.10267744
65	0xbd884833	-0.06654396
66	0x3db515cd	0.08842049
67	0xbd7b4e81	-0.061354164
68	0xbd9b0c3d	-0.07570694
69	0x3ca45408	0.0200596
70	0x3c906b37	0.017629249
71	0x3d26fa6b	0.04076616
72	0x3dae0f73	0.084990405
73	0x3d723fc0	0.059142828
74	0xbde9c23a	-0.11413999
75	0x3c2ae0ec	0.010429602
76	0x3d9408ea	0.07228263
77	0x3b4d7783	0.0031351752
78	0xbd49530a	-0.049151458
79	0x3e04312b	0.12909381
80	0x3b0e55af	0.0021718552
81	0xbd79c04d	-0.060974408
82	0xbdd3e00b	-0.10345467
83	0x3b26c7cc	0.0025448678
84	0x3d4a09e9	0.049325857
85	0x3cc99be5	0.02461047
86	0x3c99900b	0.018745443
87	0xbd951dca	-0.072810724
88	0xbdae8ca2	-0.08522917
89	0x3c0d0d2b	0.0086090965
90	0x3dd402fb	0.10352131
91	0x3d7f6d4f	0.062360104
92	0xbd8c4540	-0.06849146
93	0xbbe5cc4d	-0.00701288
94	0xbd8f501c	-0.069977015
95	0xbd3f871b	-0.046759706
96	0x3d0495ee	0.032369547
97	0x3d859330	0.065222144
98	0x3dc3d0d4	0.09561315
99	0xbd9f8a58	-0.07790059
100	0x3daacb7c	0.08339593
101	0xbd8e364a	-0.069439486
102	0x3d5f79f2	0.054559655
103	0x3dcd29ea	0.1001776
104	0x3c7687e2	0.015047045
105	0x3dea3d37	0.11437457
106	0xbda30096	-0.07959096
107	0xbcc45de1	-0.023970546
108	0x3d558dcd	0.052137185
109	0xbcb9dab2	-0.02268729
110	0xbbee6171	-0.0072747995
111	0xbd5f7cee	-0.0545625
112	0x3d8064f9	0.06269259
113	0x3d6fbe18	0.058530897
114	0x3cec9020	0.028877318
115	0xbd80cdfa	-0.06289287
116	0xbdb236d9	-0.087018676
117	0x3bbddf7e	0.0057944646
118	0x3ce38c59	0.027776884
119	0xbd4b009b	-0.049561124
120	0xbd1df0be	-0.038559668
121	0x3d8dc9cd	0.06923256
122	0x3abdd0e5	0.0014481811
123	0x3b0e0df3	0.0021675795
124	0xbce281d4	-0.027649797
125	0xbdcd6666	-0.100292966
126	0xbdfe11f8	-0.12405771
127	0xbd598f59	-0.053115223
128	0xbd3d56e7	-0.046225455
129	0x3bb5d53d	0.0055491016
130	0xbd209227	-0.03920188
131	0xbd3bc21f	-0.045839425
132	0x3da5ad2b	0.0808967
133	0x3cf3ad7c	0.02974581
134	0x3d8392ff	0.06424522
135	0xbd8828a3	-0.06648376
136	0xbd504958	-0.050851196
137	0x3d2c5f71	0.042083208
138	0xbd8d0841	-0.0688634
139	0xbd63a976	-0.055581532
140	0x3bd10b07	0.0063794884
141	0xbd2a4554	-0.041570023
142	0xbda22327	-0.07916861
143	0x3d7cdc00	0.061733246
144	0x3d9aa06c	0.07550129
145	0x3b985832	0.0046491856
146	0xbcd5139f	-0.026010333
147	0xbddb5b1e	-0.107107386
148	0xbd590828	-0.052986294
149	0x3bde2101	0.0067788367
150	0x3d472fee	0.048629694
151	0xbbeb68d8	-0.007184129
152	0xbd6ac015	-0.05731209
153	0x3d2a1b4d	0.041529942
154	0xbdb49707	-0.08817869
155	0x3d8f162d	0.069866516
156	0xbd808d7e	-0.062769875
157	0xbbbe8361	-0.0058140014
158	0xbc68b0b8	-0.014202289
159	0xbc449a65	-0.011999701
160	0xbd3595e4	-0.0443324
161	0x3d893075	0.066986956
162	0xba9dd751	-0.0012042319
163	0x3d9b5703	0.075849555
164	0x3db74d0e	0.08950244
165	0xbd585bae	-0.052821808
166	0xbdaca28c	-0.08429441
167	0x3d81982f	0.06327855
168	0x3da67b42	0.08128978
169	0xbda03519	-0.078226276
170	0xbc2a3077	-0.0103875315
171	0xbdbfebf5	-0.09371177
172	0xbda447cb	-0.08021506
173	0x3d334e4b	0.043775838
174	0x3c98b108	0.018639103
175	0x3cc0e42e	0.023546305
176	0xbc616ee0	-0.013759345
177	0x3dad25ff	0.08454513
178	0x3c45e70f	0.012079014
179	0xbd874e69	-0.066067524
180	0xbc33223e	-0.010933457
181	0x3c8b010b	0.01696827
182	0x3d05fb7a	0.03271053
183	0xbd9fc8ef	-0.07801997
184	0x3d082d2c	0.033246204
185	0xbd56e3a4	-0.05246319
186	0xbdb93517	-0.09043329
187	0xbd80578b	-0.062666975
188	0x3dd85283	0.10562613
189	0x3dc60409	0.096687384
190	0x3dc7d6c3	0.097577594
191	0x3d8a05d7	0.06739395
192	0x3db15b15	0.08659951
193	0xbc0c33dd	-0.008557287
194	0xbd3c64fa	-0.045994736
195	0x3d820948	0.063494265
196	0xbd393bb1	-0.04522294
197	0xbd70df35	-0.058806617
198	0xbcce3dd8	-0.025175974
199	0x3c932c2c	0.017965399
200	0x3d1e9e85	0.038725395
201	0xbd434576	-0.047673665
202	0xbd991921	-0.07475496
203	0x3c254f4a	0.010089705
204	0xbd97f443	-0.07419636
205	0xbd95e253	-0.073185585
206	0x3d802296	0.06256597
207	0xbcb9fd81	-0.022703888
208	0x3de2ba39	0.110706754
209	0x3df26e00	0.11837387
210	0x3d41ac9d	0.047283757
211	0x3d585a96	0.052820764
212	0x3d295466	0.041340254
213	0x3d32243d	0.04349159
214	0x3c177b8a	0.009245763
215	0x3c5f59a0	0.013632208
216	0x3d15aa1e	0.03653919
217	0x3dcfaa5a	0.10139914
218	0xbc1ec44f	-0.009690358
219	0xbd2a076a	-0.041510977
220	0xbc7bd252	-0.0153699685
221	0xbd005aed	-0.031336714
222	0x3d165095	0.036697943
223	0x3dbca402	0.092109695
224	0x3dba735b	0.091040336
225	0x3d18d0ea	0.03730861
226	0xbdbae6c0	-0.09126043
227	0xbd9a8e52	-0.07546677
228	0xbd516aa2	-0.051127084
229	0xbd449d19	-0.048001382
230	0x3bad03f2	0.0052800113
231	0xbdede61f	-0.11616158
232	0x3c4c4c5f	0.01246938
233	0xbdc1ee81	-0.09469319
234	0xbdc6ff00	-0.09716606
235	0xbddd3d27	-0.108026795
236	0x3db6c39f	0.089240305
237	0xbddc0164	-0.10742453
238	0x3d8ae51c	0.067819804
239	0xbc8d1abe	-0.017224666
240	0xbcfd7844	-0.030941136
241	0x3d3bcec8	0.0458515
242	0xbca0e458	-0.019640133
243	0x3da359a6	0.079760835
244	0x3da3a891	0.07991136
245	0xbdc96074	-0.0983285
246	0x3d5e6052	0.054291077
247	0x3ce59c08	0.028028503
248	0x3cce2553	0.025164282
249	0xbb2effbf	-0.002670273
250	0x3c9b892e	0.01898631
251	0xbd38c421	-0.045108918
252	0xbc78608c	-0.015159737
253	0x3de21e75	0.110409655
254	0x3db4cf37	0.088285856
255	0x3c91826a	0.017762382

conv_block_1.3.bias f4 [10]
0	0x3c5e3ac2	0.013563814
1	0x3be966c3	0.007122846
2	0xbdcd7869	-0.10032732
3	0xbda3de20	-0.08001351
4	0x3c3c683e	0.011499463
5	0xbd5524fe	-0.05203723
6	0xbb1072ff	-0.00220412
7	0xbd10f2d5	-0.035387833
8	0x3cb4e36e	0.022081103
9	0x3c85860d	0.016299272

conv_block_2.0.weight f4 [10, 10, 3, 3]
0	0xbce6446d	-0.0281088
1	0x3da34643	0.07972386
2	0x3dc6f2cf	0.09714281
3	0xbdd3d0f0	-0.10342586
4	0xbdb328dd	-0.087480284
5	0xbdb6a12e	-0.08917461
6	0xbd920b04	-0.07131007
7	0xbd541665	-0.05177917
8	0xbd08c44e	-0.033390336
9	0xbcc6e322	-0.024278227
10	0xbd4cf592	-0.05003888
11	0xbd15622a	-0.03647057
12	0xbd30aade	-0.0431317
13	0x3dbd8b22	0.09255053
14	0xbd1d72eb	-0.038439672
15	0xbda7f7b2	-0.08201541
16	0x3d01fe2c	0.031736538
17	0x3a8de1e7	0.001082477
18	0x3dd74c69	0.10512621
19	0x3da630bf	0.08114766
20	0x3dfb2219	0.12262363
21	0xbd6cd116	-0.057816587
22	0x3dbf40a6	0.093385026
23	0x3df45874	0.119309336
24	0xbcfec7c9	-0.031101124
25	0x3de5f9e8	0.112293065
26	0x3db012e3	0.08597352
27	0x3c1fb87b	0.009748573
28	0x3d3eb8b1	0.046562854
29	0xbd221cb2	-0.039578147
30	0xbd98c55e	-0.0745952
31	0x3cce17d7	0.025157852
32	0x3d0bcfae	0.034133606
33	0xbd896dce	-0.06710397
34	0x3d21ae9a	0.039473154
35	0xbd722e5f	-0.059126254
36	0x3d9709f7	0.073749475
37	0x3db3de88	0.08782679
38	0x3cff6edd	0.031180793
39	0xbda44f15	-0.08022896
40	0x3d699670	0.057028234
41	0x3c9b5494	0.018961228
42	0x3c6c5f69	0.014427044
43	0x3cb4c0da	0.022064615
44	0x3d98977e	0.0745077
45	0xbd64f7d7	-0.05590042
46	0xbc83a400	-0.016069412
47	0x3d146e0b	0.036237758
48	0x3be4a5d7	0.0069777775
49	0x3db1e4b0	0.08686197
50	0xbd4ccc6a	-0.049999632
51	0xbc9a838f	-0.01886156
52	0x3c0cec21	0.008601219
53	0xbd15c04c	-0.03656034
54	0x3d8641c5	0.06555513
55	0x3bdef70d	0.006804353
56	0xbdbf6b9d	-0.093466975
57	0xbc1935ac	-0.009351175
58	0xbd38eb9a	-0.045146562
59	0x3c57d49f	0.013173251
60	0xbbcbaf4b	-0.006215965
61	0xbddca15a	-0.10772963
62	0xbc9a25f1	-0.01881692
63	0xbc955b61	-0.01823205
64	0xbd0cde73	-0.03439183
65	0x3dcfbbfc	0.10143277
66	0xbc8e2144	-0.017349847
67	0x3d9b2e53	0.07577195
68	0x3d00589b	0.0313345
69	0xbdb2f6b9	-0.08738465
70	0x3d083f74	0.03326364
71	0x3dbc0d74	0.091822535
72	0xbdb44db3	-0.088038824
73	0xbd924c3c	-0.07143447
74	0x3dcfb95a	0.10142775
75	0x3d6c9240	0.057756662
76	0xbd80f0a1	-0.06295896
77	0x3d7322f9	0.059359524
78	0xbd0bc96b	-0.034127634
79	0xbe07c1b4	-0.13257486
80	0xb9758aa1	-0.00023416664
81	0x3c0ed1b3	0.008716988
82	0xbd54d3b2	-0.0519597
83	0x3ca0e004	0.019638069
84	0xbddcce09	-0.107814856
85	0x3d3d772e	0.046256237
86	0x3d9ffd72	0.07812013
87	0x3d45882a	0.04822556
88	0x3b03c3fe	0.0020105834
89	0x3c505ef0	0.012717947
90	0xbdc68afd	-0.09694479
91	0xbd2c6ea0	-0.042097688
92	0xbbc52c8b	-0.006017273
93	0xbd6b2cd7	-0.05741581
94	0xbda94866	-0.08265762
95	0x3d7b113f	0.061295744
96	0x3d8e05dc	0.06934711
97	0xbd9c21fa	-0.07623668
98	0x3d2341cb	0.039857667
99	0x3c41b9f3	0.011824119
100	0x3dab4ddf	0.08364462
101	0x3d292aca	0.041300572
102	0x3da66c5b	0.08126136
103	0xbd63d7dd	-0.055625785
104	0x3d3bec35	0.04587956
105	0x3d580438	0.0527384
106	0xbe09f540	-0.13472462
107	0xbde85d4c	-0.1134592
108	0x3cbbb36d	0.022912705
109	0x3d8a1e7e	0.06744097
110	0xbd27f20b	-0.041002315
111	0x3d132c83	0.03593112
112	0x3ca1452d	0.019686306
113	0x3cd54a49	0.026036398
114	0xbd28dfaa	-0.041228928
115	0x3da8b7fc	0.08238217
116	0x3db54732	0.0885147
117	0xbd915287	-0.07095819
118	0x3b3fe9c7	0.002928363
119	0x3c9b2ab3	0.018941259
120	0x3cef85fb	0.029238692
121	0x3ddbf80e	0.10740672
122	0x3ca7b044	0.020469792
123	0xbd41285f	-0.04715764
124	0x3dad164d	0.08451519
125	0xbd7f9045	-0.062393446
126	0xbce34698	-0.027743623
127	0x3c5061bf	0.012718617
128	0xbd90cb54	-0.07070032
129	0x3a77c646	0.0009451847
130	0xbd95e063	-0.07318189
131	0x3bf9a7af	0.0076188664
132	0x3c934288	0.01797606
133	0x3c84f2e7	0.016229106
134	0xbdc11164	-0.09427145
135	0xbded3a95	-0.11583439
136	0x3cc750dc	0.024330549
137	0x3da14c1b	0.07875844
138	0xbdd0b4ee	-0.101907596
139	0x3cc3a002	0.023880009
140	0xbdcec596	-0.1009628
141	0xbbc17d28	-0.0059048124
142	0x3d9e33c0	0.07724714
143	0x3d61e928	0.055153996
144	0xbd8c8ecf	-0.06863176
145	0x3d9dd69c	0.07706949
146	0x3d7efb28	0.06225124
147	0x3b8725ea	0.0041243928
148	0x3dd9acea	0.10628684
149	0xbd2193b9	-0.03944752
150	0xbcd4b8e4	-0.025967069
151	0xbd839a63	-0.06425931
152	0x3bde77a4	0.0067891646
153	0x3c501139	0.012699419
154	0xbc0b42e6	-0.008499837
155	0xbd970951	-0.07374824
156	0xbd80d515	-0.06290642
157	0x3c490c0b	0.012270938
158	0xbdd31cb2	-0.103082076
159	0xbcf19ba5	-0.029493162
160	0xbca921ed	-0.02064606
161	0xbd3bd52d	-0.045857597
162	0x3d68aa6f	0.056803163
163	0x3c9143fb	0.01773261
164	0x3da17b03	0.07884791
165	0xbad3576a	-0.0016124074
166	0xbd5bb980	-0.053643703
167	0x3da0fa6e	0.07860266
168	0x3c7686cc	0.0150467865
169	0xbbb133d1	-0.0054077883
170	0xbd93f6c4	-0.07224801
171	0x3c870813	0.016483342
172	0xbdc9e680	-0.098584175
173	0x3d0fac1c	0.035076246
174	0x3d335762	0.043784507
175	0xbdc80a0a	-0.0976754
176	0xbd9a1459	-0.07523412
177	0xbdbad403	-0.09122469
178	0x3d995e47	0.07488685
179	0x3db0648d	0.086129285
180	0xbd173008	-0.03691104
181	0x3df46974	0.11934176
182	0xbd183eba	-0.037169196
183	0xbdc0c365	-0.094122685
184	0x3d88b48f	0.06675064
185	0x3d6c4f33	0.057692718
186	0x3dda3f79	0.10656638
187	0x3cb626da	0.022235323
188	0x3de32943	0.110918544
189	0x3d584bef	0.05280679
190	0x3d5687a6	0.05237546
191	0xbdf09ffb	-0.11749264
192	0x3d78e646	0.06076648
193	0xbe0088cc	-0.12552184
194	0x3d596954	0.053078964
195	0xbd0c3be4	-0.034236804
196	0xbe125f17	-0.14294086
197	0xbce07e1e	-0.027403887
198	0xbd198ba3	-0.037486684
199	0xbdd509db	-0.104022704
200	0xbd7a2bf0	-0.06107706
201	0x3c449821	0.011999161
202	0x3da754a8	0.08170444
203	0xbd016a84	-0.03159572
204	0x3d94224c	0.07233104
205	0x3ca2ec58	0.019888088
206	0x3b96226d	0.0045817406
207	0x3d8baa8b	0.06819638
208	0xbd3cc817	-0.046089258
209	0xbd9d337d	-0.07675836
210	0xbd033ee9	-0.032042418
211	0xbd93cf05	-0.0721722
212	0xbcd4430b	-0.025910875
213	0xbbc11710	-0.005892642
214	0xbd9fda9f	-0.078053705
215	0xbd28a3bd	-0.041171778
216	0xbcbdd92f	-0.02317485
217	0xbcf52f89	-0.029929893
218	0xbd9f308d	-0.07772932
219	0x3c568c2d	0.013094944
220	0xbc9e70fd	-0.019340986
221	0x3c6f98e0	0.014623851
222	0x3b7fa8f2	0.0039010611
223	0xbd6b5234	-0.057451442
224	0xbd393b84	-0.045222774
225	0xbb95f92e	-0.0045768237
226	0xbd866a5f	-0.065632574
227	0x3b6711b7	0.0035258362
228	0xbd0f9fec	-0.035064623
229	0x3c40710f	0.011745705
230	0xbc92e978	-0.017933592
231	0x3d2288cc	0.03968124
232	0xbd36b72c	-0.04460828
233	0xbddbc64c	-0.107311815
234	0x3d231d34	0.039822772
235	0xbd9ea945	-0.07747129
236	0xbc8560ba	-0.016281474
237	0xbd1e496c	-0.03864424
238	0xbd05d0a2	-0.03266967
239	0xbd02f496	-0.031971537
240	0x3dc5c8a2	0.09657408
241	0x3d9a7bf8	0.075431764
242	0x3d33b410	0.043872893
243	0x3da6ef17	0.081510715
244	0xbdd28b48	-0.10280472
245	0x3cdba18f	0.026810436
246	0x3cc83162	0.02443761
247	0x3d38a5c8	0.045079976
248	0xbdc9be43	-0.09850743
249	0xbc793289	-0.015209802
250	0xbdd0c77d	-0.10194299
251	0xbcfa66ad	-0.030566538
252	0x3c8d4824	0.017246313
253	0xbd7d36a3	-0.061819684
254	0xbd8f6ed2	-0.07003559
255	0xbcbbc7ec	-0.022922479

conv_block_2.0.bias f4 [10]
0	0x3ce00c94	0.027349748
1	0xb876cb05	-5.8840047e-05
2	0x3d2c8539	0.04211924
3	0x3d8399f0	0.064258456
4	0xbd1c2ae7	-0.038126852
5	0xbd4c51da	-0.049882747
6	0x3d1774e2	0.036976703
7	0xbc439fdd	-0.01193997
8	0xbc55c65a	-0.013047779
9	0xbdb17820	-0.0866549

conv_block_2.1.weight f4 [10]
0	0x3f7c3132	0.98512566
1	0x3f7eda35	0.9955171
2	0x3f8291cd	1.0200745
3	0x3f80e3f7	1.0069569
4	0x3f806c4c	1.003305
5	0x3f7e155e	0.99251354
6	0x3f81c934	1.0139527
7	0x3f80f6e5	1.0075346
8	0x3f78d748	0.97203493
9	0x3f7bffa6	0.98436964

conv_block_2.1.bias f4 [10]
0	0xbc81434d	-0.015779162
1	0x3c07d1ec	0.008289795
2	0x3d11c974	0.03559251
3	0xbbbae516	-0.0057035787
4	0x3c349a88	0.011023171
5	0xbb2e95d6	-0.0026639602
6	0xbb114679	-0.002216725
7	0x3bd37598	0.0064532273
8	0xbc6f1958	-0.014593445
9	0xbc31db0a	-0.010855446

conv_block_2.1.running_mean f4 [10]
0	0x3e9fe16c	0.3122667
1	0xbc195d44	-0.009360615
2	0xbdada8f9	-0.084794946
3	0x3e7684ef	0.24074148
4	0xbe2ae6fa	-0.16689673
5	0xbe149ea8	-0.14513648
6	0x3e190bdd	0.14945932
7	0xbdab1283	-0.0835314
8	0xbd7e0d32	-0.062024303
9	0xbd9f891c	-0.077898234

conv_block_2.1.running_var f4 [10]
0	0x3df7c6b5	0.12098447
1	0x3d6b0189	0.05737451
2	0x3d0835ac	0.03325431
3	0x3d68a052	0.05679352
4	0x3d291b87	0.041286018
5	0x3d3ea01c	0.04653941
6	0x3dd7509e	0.105134234
7	0x3de0e44e	0.10981046
8	0x3ce04b21	0.027379574
9	0x3c95532c	0.018228136

conv_block_2.3.weight f4 [10, 10, 3, 3]
0	0x3db7586b	0.08952411
1	0xbc087b34	-0.008330155
2	0xbc8d6936	-0.017262083
3	0xbd01f2c7	-0.03172567
4	0xbcb43855	-0.021999517
5	0x3d8bffa3	0.06835868
6	0xbc7608b3	-0.0150167225
7	0x3db19b15	0.08672158
8	0x3c6d9c5d	0.014502612
9	0xba4d949f	-0.00078422757
10	0x3d6ad5ca	0.05733279
11	0x3cc0b72c	0.023524843
12	0xbcc2954c	-0.02375283
13	0x3cef5b7d	0.02921843
14	0x3db83abf	0.0899558
15	0x3d289cde	0.041165225
16	0x3d860cbd	0.065453984
17	0x3d63edd3	0.05564673
18	0x3d573aac	0.05254619
19	0x3d896f57	0.067106895
20	0x3d325a77	0.043543305
21	0x3d01bf63	0.03167666
22	0x3dc4c8ea	0.09608634
23	0x3dadb35f	0.08481478
24	0x3d11716a	0.03550855
25	0x3b978b27	0.0046247425
26	0x3dbfb460	0.09360576
27	0xbd93f3c1	-0.07224227
28	0x3db42012	0.087951794
29	0x3d88ca77	0.06679242
30	0x3da1010e	0.07861529
31	0x3c3cc4b1	0.011521504
32	0xbd80094d	-0.06251774
33	0x3dba1af2	0.09087171
34	0xbd0d670a	-0.034522094
35	0x3d1e57d4	0.03865798
36	0x3d589c75	0.052883584
37	0xbdcc908d	-0.099885084
38	0x3b094ae1	0.0020949172
39	0xbd0ef927	-0.03490558
40	0x3d9aa1ac	0.07550368
41	0xbd9bc65a	-0.07606192
42	0x3d59ffed	0.053222585
43	0x3d81db8a	0.06340702
44	0x3d3736eb	0.04473011
45	0x3db9d31a	0.090734676
46	0x3c228160	0.009918541
47	0xbddf9583	-0.10917189
48	0x3d615724	0.055014744
49	0xbca1ce9e	-0.019751843
50	0xbc03b0ad	-0.008037728
51	0xbdd4cbe6	-0.10390453
52	0xbd0bb0e9	-0.03410426
53	0xbd43e71d	-0.04782783
54	0x3de2b625	0.110698976
55	0x3da3d6e7	0.07999974
56	0x3da8e4ae	0.08246742
57	0x3d9968be	0.07490681
58	0xbd443529	-0.04790226
59	0xbd0e6899	-0.03476772
60	0xbd45a647	-0.048254278
61	0xbd0d4b06	-0.034495376
62	0x3da04eec	0.07827553
63	0x3c91e015	0.017807046
64	0x3d88a095	0.066712536
65	0xbcc0e951	-0.023548754
66	0xbdf418f9	-0.11918826
67	0xbd4a5937	-0.04940149
68	0x3d59d828	0.05318466
69	0x3d4377c4	0.04772164
70	0x3c1a79dd	0.0094284685
71	0xbd5c7672	-0.053823896
72	0xbdc9296b	-0.09822353
73	0xbd80c15b	-0.0628688
74	0x3d677e06	0.05651667
75	0xbd0c6a31	-0.03428096
76	0x3d65613b	0.05600093
77	0x3cfc0315	0.030763188
78	0xbcf287f3	-0.029605841
79	0x3d90f6ba	0.07078309
80	0xbd0fd799	-0.03511772
81	0xbcb76949	-0.022389071
82	0xbd5660a2	-0.05233825
83	0xbdf0abb0	-0.11751497
84	0x3b730a06	0.0037084832
85	0x3bb95d15	0.005656848
86	0xbd858552	-0.065195695
87	0x3d45a110	0.048249304
88	0xbdf89715	-0.121381916
89	0xbdef3397	-0.11679762
90	0xbd837325	-0.064184465
91	0xbd1a31b7	-0.037645068
92	0xbc21c4bf	-0.009873568
93	0xbcbc2248	-0.022965565
94	0x3d43a144	0.047761217
95	0xbdb3c978	-0.087786615
96	0x3ca4559d	0.020060355
97	0xbb669726	-0.0035185306
98	0x3cbea119	0.023270177
99	0x3defa10e	0.117006406
100	0x3d9a69e0	0.07539725
101	0xbd446620	-0.047948956
102	0xbd6b1f48	-0.05740288
103	0xbca6955e	-0.020334896
104	0xbd97550f	-0.073892705
105	0x3d00bb22	0.031428464
106	0x3addf12a	0.0016932834
107	0x3dd034f5	0.10166351
108	0x3d5611c9	0.052263055
109	0xbcae0e60	-0.021247089
110	0x3c142a13	0.009043234
111	0x3d16afed	0.03678887
112	0x3c62de80	0.013846993
113	0x3db14031	0.08654822
114	0xbdb0e909	-0.08638198
115	0x3d0c7252	0.03428871
116	0xbd8f01a5	-0.069827355
117	0xbd9d59d8	-0.07683152
118	0xbc11afb9	-0.008891993
119	0x3d86e705	0.06587032
120	0x3dbf3b43	0.09337475
121	0x3d294d27	0.041333344
122	0x3b095625	0.0020955887
123	0x3c8aee3c	0.016959302
124	0xbcd2933a	-0.025704969
125	0x3ad469a2	0.0016205797
126	0xbab6b65d	-0.0013939847
127	0x3dd8bcb7	0.105828695
128	0x3d995fa1	0.07488943
129	0xbd9f9ec8	-0.07793957
130	0x3be6a6ca	0.007038926
131	0xbd378cfc	-0.044812188
132	0xbcaeef72	-0.02135441
133	0xbd963a86	-0.07335381
134	0x3d4d1d4e	0.050076775
135	0xbdb53fcc	-0.08850059
136	0x3ddb457a	0.10706611
137	0x3db4ffb7	0.08837836
138	0xbdb74d5e	-0.089503035
139	0xbdc28102	-0.094972625
140	0xbc22aa28	-0.009928264
141	0xbcfc76e7	-0.030818416
142	0x3c6389ff	0.013887881
143	0xbd8cb38c	-0.06870183
144	0x3d0061ab	0.031343143
145	0xbdd61a92	-0.10454287
146	0xbd8f773c	-0.07005164
147	0xbd6606ad	-0.05615871
148	0x3d1f698c	0.038919017
149	0xbc4339db	-0.011915649
150	0xbdb1f839	-0.08689923
151	0xbd7a1900	-0.061058998
152	0xbd955bce	-0.07292901
153	0xbdee9d32	-0.116510764
154	0xbb23584e	-0.002492446
155	0x3cd35685	0.025798092
156	0xbd2be102	-0.04196263
157	0xbd7cb077	-0.061691727
158	0xbcc1f16e	-0.023674693
159	0xbdca9b71	-0.09892929
160	0xbda4e010	-0.08050549
161	0xbcfeff21	-0.031127514
162	0x3dc57593	0.09641566
163	0xbd4c56a7	-0.049887326
164	0x3d18b3dc	0.037280902
165	0xbd680773	-0.05664773
166	0xbcce873d	-0.025210971
167	0xbdc58b7d	-0.09645746
168	0x3d823734	0.063581854
169	0x3de6eb95	0.112754025
170	0xbc0fe800	-0.00878334
171	0x3cd399e5	0.025830219
172	0x3d738f48	0.059462816
173	0x3cf06ea7	0.029349638
174	0x3cf29603	0.029612547
175	0xbdea654e	-0.114451036
176	0xbde3a0b2	-0.111146346
177	0xbdb358e8	-0.08757192
178	0x3b628b32	0.003456783
179	0xbdae4e3e	-0.08511017
180	0xbda7f4be	-0.08200978
181	0xbd44a11c	-0.04800521
182	0xbdb8203e	-0.08990525
183	0xbc830992	-0.015995774
184	0xbbc164d9	-0.0059019146
185	0xbd966be9	-0.07344801
186	0x3d707a12	0.058710165
187	0xbd325327	-0.04353633
188	0xbce1354b	-0.027491232
189	0x3d98f90e	0.074693784
190	0x3d9feb22	0.0780852
191	0xbcd6ed25	-0.026236126
192	0xbdaee671	-0.08540047
193	0xbd84f240	-0.06491518
194	0xbc2ce2e0	-0.010552138
195	0x3d90fb2d	0.07079158
196	0x3d72685a	0.05918155
197	0xbd488e3d	-0.048963774
198	0xbd82d52f	-0.06388318
199	0xbd958d19	-0.07302303
200	0xbd35c346	-0.04437568
201	0xbc358217	-0.011078379
202	0xbd314f12	-0.043288298
203	0xbd847c24	-0.064689904
204	0xbd3a508e	-0.04548698
205	0xbde4af04	-0.11166194
206	0xbdaa919a	-0.083285525
207	0xbdb83943	-0.08995297
208	0xbcc85675	-0.024455288
209	0x3dc0c775	0.094130434
210	0x3d515c81	0.05111361
211	0x3b11ca62	0.0022245874
212	0x3d022089	0.03176931
213	0x3d337ddf	0.043821212
214	0x3aee410c	0.0018177344
215	0xbdb1f38a	-0.086890295
216	0xbd53f671	-0.051748697
217	0xbd6be379	-0.05758998
218	0xbbf30902	-0.0074168453
219	0xbdb95dbd	-0.09051082
220	0xbc6fedac	-0.014644068
221	0xbce1dfaa	-0.027572472
222	0x3e0b0592	0.13576344
223	0x3ddc0ddb	0.1074483
224	0x3d8cc5a0	0.068736315
225	0xbb5baff6	-0.003352163
226	0xbd6a3476	-0.057178937
227	0x3b1ebe14	0.0024222182
228	0xbda9c3bc	-0.082892865
229	0xbd84b635	-0.06480066
230	0xbd3b7f8e	-0.045775943
231	0xbd0d57c2	-0.03450752
232	0xbdd7cd9b	-0.10537263
233	0x3d65b389	0.05607942
234	0x3dab58e0	0.08366561
235	0xbd5ebaa6	-0.05437722
236	0x3d358306	0.044314407
237	0xbc85b7e2	-0.016323034
238	0x3ba6cdc9	0.0050904495
239	0x3c6db196	0.014507672
240	0x3d9f03b4	0.07764378
241	0x3bb6fcc9	0.0055843336
242	0xbd9ba89a	-0.076005176
243	0xbd087663	-0.033316027
244	0x3cdf9ebe	0.027297374
245	0xbaba9724	-0.0014235717
246	0x3c9269cf	0.01787272
247	0x3b282da5	0.0025661972
248	0xbd613e96	-0.054991327
249	0xbc5da04c	-0.013526987
250	0xbd50eb19	-0.051005457
251	0x3c46c4cd	0.012131882
252	0xbbf750e7	-0.007547486
253	0x3d331037	0.043716636
254	0xbcdac5ca	-0.026705641
255	0xbc9313ec	-0.017953835

conv_block_2.3.bias f4 [10]
0	0x3d8eb76c	0.06968579
1	0x3dc45289	0.09586055
2	0x3ca25f50	0.01982084
3	0xbdc4ae05	-0.09603504
4	0xbc7f73a1	-0.015591533
5	0xbd2f7ae3	-0.042841803
6	0xbd2b54dc	-0.041828975
7	0x3dc6f15d	0.09714005
8	0xbd142ee6	-0.03617754
9	0xbd772800	-0.06034088

conv_block_2.4.weight f4 [10]
0	0x3f7b84b4	0.98249364
1	0x3f769a43	0.96329135
2	0x3f7e2cf2	0.9928733
3	0x3f7b1214	0.9807446
4	0x3f80376a	1.0016911
5	0x3f7c096e	0.9845189
6	0x3f80893e	1.0041883
7	0x3f7bdfb1	0.983882
8	0x3f76f443	0.96466464
9	0x3f7bfa21	0.9842854

conv_block_2.4.bias f4 [10]
0	0xbcbb9f4c	-0.022903107
1	0xbd351ca0	-0.044216752
2	0xbcd62b30	-0.02614364
3	0xbcec6e07	-0.028861059
4	0xbd304f84	-0.043044582
5	0xbd051bde	-0.03249728
6	0xbcae362c	-0.021266066
7	0xbd5c55e4	-0.05379285
8	0xbd73fa04	-0.059564605
9	0xbd0d0ef9	-0.034438107

conv_block_2.4.running_mean f4 [10]
0	0x3ed9ccad	0.42538968
1	0xbe996066	-0.2995636
2	0xbe911f43	-0.28344163
3	0xbea35829	-0.31903198
4	0x3b4258d8	0.0029655006
5	0x3ea4f9e8	0.32221913
6	0xbe527dbe	-0.2055578
7	0x3ee91700	0.4552536
8	0x3daff0f3	0.08590879
9	0xbe914a34	-0.28376925

conv_block_2.4.running_var f4 [10]
0	0x3f1a93db	0.6038186
1	0x3e58ec84	0.21183974
2	0x3e04ee42	0.12981513
3	0x3e0fc227	0.14038907
4	0x3e25cf60	0.16192389
5	0x3eb28e11	0.34874013
6	0x3ebe1761	0.37127212
7	0x3e27e43f	0.16395663
8	0x3db775ad	0.08957992
9	0x3e2b8440	0.16749668

classifier.1.weight f4 [3, 1690]
0	0xbd161bb9	-0.036647532
1	0xba824645	-0.0009939155
2	0xbd00ded2	-0.031462498
3	0x3b831828	0.0040006824
4	0x3c4c7e7f	0.012481331
5	0xbc0f9456	-0.008763393
6	0x3c22ffd7	0.009948692
7	0x3d2de6ec	0.042456552
8	0x3bef3563	0.0073000654
9	0xbc048ba8	-0.008089937
10	0xbd1be274	-0.03805776
11	0xbd101608	-0.03517726
12	0xbb03646e	-0.0020048874
13	0xbc25f49c	-0.01012912
14	0x3c9c727a	0.019097555
15	0xbc93246b	-0.017961701
16	0x3bc96d54	0.006147066
17	0x3b6e898e	0.0036397907
18	0xbbf0070e	-0.0073250597
19	0x3c8f7266	0.017510604
20	0x3d2deebd	0.042464007
21	0x3bc29b5d	0.005938931
22	0xbba8da06	-0.0051529435
23	0xbcf45532	-0.02982578
24	0x3c89aede	0.016807016
25	0xbc54a519	-0.0129788155
26	0x3bf64ab4	0.0075162295
27	0x3c94b470	0.018152446
28	0xbbe97aec	-0.007125249
29	0xbbe204bd	-0.0068975375
30	0xbc2d2e6d	-0.010570151
31	0xbc223e67	-0.009902573
32	0xbc348296	-0.011017462
33	0x3c9a84d6	0.01886217
34	0xbd1e5974	-0.038659528
35	0x3be0256b	0.006840398
36	0x3b67abfe	0.0035350318
37	0x3c130e53	0.008975583
38	0x3b8dd7dd	0.0043287114
39	0xbc06f6cd	-0.008237553
40	0x3c85da87	0.016339554
41	0x3cb455a2	0.02201349
42	0x3d03e4e3	0.032200705
43	0x3acc4101	0.0015583338
44	0xbc5ce6e9	-0.013482788
45	0x3baf1a1b	0.005343688
46	0xbbddb75e	-0.006766244
47	0xbd0b5f20	-0.034026265
48	0xbd205442	-0.039142855
49	0xbb97a688	-0.0046280064
50	0x3c7ceb40	0.015436947
51	0x3d520e8f	0.051283415
52	0xbc808023	-0.0156861
53	0xbbefecde	-0.007321938
54	0xbc617961	-0.013761849
55	0x3b16facb	0.0023037668
56	0x3c4f63d8	0.012658082
57	0xbd43cdbd	-0.04780363
58	0xbc23def2	-0.010001885
59	0xbb708aeb	-0.0036703895
60	0xbc2641c9	-0.01014752
61	0xbc2b4868	-0.010454275
62	0xbcf2ac71	-0.029623242
63	0x3b8867bd	0.004162757
64	0x3c75d593	0.015004533
65	0xbc945aa4	-0.018109627
66	0xbc395b27	-0.011313236
67	0x3b53e008	0.0032329578
68	0xbb155985	-0.0022788954
69	0xbc873779	-0.016505944
70	0xbc45ad3d	-0.012065229
71	0xbbfd5a2c	-0.0077316966
72	0xbba44326	-0.0050128875
73	0xbc1b6dab	-0.009486596
74	0xbc766812	-0.015039461
75	0xbca2babb	-0.01986443
76	0x3c3ab5c2	0.0113958735
77	0x3d2db06c	0.042404577
78	0x3bdf624b	0.0068171374
79	0xbbe55f51	-0.006999888
80	0xba384048	-0.00070286216
81	0xbcb6241d	-0.022234017
82	0xbc203134	-0.009777356
83	0xbc1abc62	-0.009444328
84	0x3c7e90a3	0.015537414
85	0x3bec805a	0.007217449
86	0xbc8d9eeb	-0.017287692
87	0x3d0151f3	0.031572293
88	0xbcb2e132	-0.021835897
89	0x3c7a98cb	0.015295218
90	0x3ca4f697	0.020137114
91	0x3c8b2976	0.016987544
92	0xbcbb401e	-0.022857722
93	0xbca25a3d	-0.01981842
94	0xbb4fe1be	-0.0031720246
95	0x3bc8d22a	0.006128569
96	0xbcd8fdeb	-0.026488265
97	0xbbaa05c6	-0.0051886765
98	0xbcd23720	-0.025661051
99	0xbc4a1d2b	-0.012336056
100	0xbb5686c7	-0.0032734142
101	0xbc36a32d	-0.011147303
102	0xbc88d0ae	-0.016701069
103	0x3c9b8815	0.018985787
104	0xbcc1c78e	-0.023654725
105	0xbc779147	-0.01511032
106	0xbcff64b8	-0.031175956
107	0x3c433e64	0.011916731
108	0xbcba93f4	-0.022775628
109	0xbd31d16a	-0.043412603
110	0xbc8d0b0b	-0.01721718
111	0x3b602645	0.0034202498
112	0x3d0480b4	0.032349303
113	0x3c47848c	0.012177598
114	0xbbe98f58	-0.0071276836
115	0xbd10bd21	-0.035336617
116	0xbb39f409	-0.0028374216
117	0x3abfadc4	0.001462393
118	0x3a9379db	0.0011251526
119	0x3c62500d	0.013813031
120	0xbc202466	-0.009774303
121	0x3c05973b	0.008153732
122	0x3be6d376	0.007044251
123	0xbccfffa2	-0.02539045
124	0x3ba39f11	0.0049933274
125	0x3c3c0ba5	0.011477386
126	0x3b65a105	0.0035038602
127	0xbd1e689c	-0.038673982
128	0xbcdee607	-0.027209295
129	0x3c986a53	0.018605387
130	0xb9989d0a	-0.00029108702
131	0xbbb968ea	-0.0056582587
132	0xbc75d26e	-0.015003784
133	0xbc59539b	-0.013264562
134	0xbab2736a	-0.0013614718
135	0xbc0f7017	-0.008754752
136	0x3c81e93f	0.01585829
137	0xbb989e2e	-0.0046575284
138	0x3cdc7bf6	0.026914578
139	0xbd1827c4	-0.0371473
140	0xbd36c4bb	-0.04462121
141	0xbca6dbf9	-0.020368563
142	0xbcabbeaa	-0.02096494
143	0x3d146fcb	0.036239427
144	0x3cdae192	0.026718888
145	0x3cd82a86	0.026387464
146	0xbaa99f10	-0.0012941081
147	0x3c039994	0.008032221
148	0x3c853f07	0.016265405
149	0xbc055286	-0.008137351
150	0x3ca99242	0.020699624
151	0x3cfc1af3	0.03077457
152	0xbcea3916	-0.028591674
153	0xbc789c1b	-0.015173937
154	0xbd02cd6e	-0.031934194
155	0x3d015663	0.031576525
156	0xba082151	-0.0005192953
157	0x3c85d107	0.016335024
158	0x3d2aa9dc	0.041665897
159	0xbc2faef3	-0.0107228635
160	0x3c2e1755	0.01062568
161	0xbb05bcf8	-0.0020406824
162	0x3ba49ba0	0.0050234348
163	0xbcddfa45	-0.027096877
164	0xbc0f1e8a	-0.008735308
165	0xbcc0be5a	-0.023528267
166	0xbb64e436	-0.0034926063
167	0xbb34d82f	-0.0027594676
168	0x3d10c205	0.03534128
169	0x3c50cdd2	0.012744384
170	0x3c0499ae	0.008093281
171	0xbc113c6a	-0.0088645015
172	0x3c40bff7	0.011764518
173	0xbcca92c0	-0.024728179
174	0x3beb681f	0.007184043
175	0xbb944010	-0.0045242384
176	0x3c297172	0.010341989
177	0x3c97d303	0.018533235
178	0x3c9e90e5	0.0193562
179	0x3cc2b16f	0.023766248
180	0x3936918b	0.00017411092
181	0x3d31407b	0.043274384
182	0x3b0f19c5	0.0021835428
183	0x3bf0d796	0.0073499186
184	0xbbf3312d	-0.0074216337
185	0xbbf151d5	-0.0073644915
186	0x3c064a48	0.008196421
187	0xbc80576e	-0.01566669
188	0x3c07e173	0.008293497
189	0xbc9ee8e8	-0.019398168
190	0xbc85755c	-0.016291313
191	0x3cc0cb87	0.02353455
192	0x3cede85a	0.029041458
193	0x3d05087d	0.0324788
194	0x3b5a92e2	0.003335171
195	0x3cf7c650	0.03024593
196	0x3caf4448	0.021394864
197	0x3be1c8cd	0.0068903924
198	0x3b031896	0.0020003668
199	0xbc9a3485	-0.018823871
200	0x3c971c3a	0.018446077
201	0x3cbb4cfd	0.02286386
202	0xbc8ab116	-0.016930144
203	0xbc59c238	-0.013290934
204	0x3c629902	0.013830425
205	0x3cbc23dc	0.022966318
206	0x3c116400	0.0088739395
207	0x3caf2325	0.021379063
208	0xbc51b2d7	-0.012798986
209	0xbc8e3dec	-0.017363511
210	0xbc895f9f	-0.016769229
211	0x3ccec52b	0.025240501
212	0x3c862465	0.016374776
213	0xbc97d84b	-0.018535754
214	0xbca9270b	-0.0206485
215	0xbcd223f4	-0.02565191
216	0xbc8a91b9	-0.01691519
217	0x3c8429b2	0.016133163
218	0xbcc49e40	-0.02400124
219	0x3b538c1b	0.0032279554
220	0xbae954a2	-0.0017801712
221	0xbc2c564f	-0.010518624
222	0xbc64efe8	-0.013973214
223	0x3cb8b001	0.022544863
224	0x3c00bf34	0.007858086
225	0x3d2d4452	0.042301483
226	0x3cf224c9	0.029558556
227	0x3cefe3c9	0.029283421
228	0xbcf072ce	-0.029351618
229	0xbd19f472	-0.037586637
230	0xbcbe4bc3	-0.023229485
231	0xbc813099	-0.015770243
232	0xbcc480db	-0.023987224
233	0x3bb73b2f	0.005591772
234	0x3cd0cdd3	0.02548877
235	0xbb578a07	-0.0032888667
236	0xbd034715	-0.03205021
237	0xbc3036c0	-0.010755241
238	0x3d027d5a	0.031857826
239	0x3c8c560c	0.017130874
240	0x3bd99d23	0.0066410466
241	0xbc18a6f6	-0.00931715
242	0xbc811bab	-0.015760263
243	0x3ac272a0	0.0014835186
244	0xbc9c5774	-0.01908467
245	0xbbaa12f0	-0.005190246
246	0xbbb85e51	-0.0056264778
247	0xbc6e4551	-0.0145428935
248	0xbc91f1c3	-0.017815476
249	0xbcfa3d31	-0.030546756
250	0xbbcdeba4	-0.006284194
251	0x3c1d1267	0.009586907
252	0x3d4c49b6	0.049874984
253	0xbcbb881d	-0.022892052
254	0xbc8e0471	-0.017336102
255	0xbc36c83b	-0.011156137

classifier.1.bias f4 [3]
0	0x3c822b37	0.015889747
1	0xbc45ea9f	-0.012079864
2	0xbcbb156b	-0.022837361
