backend/models/sample_model_1.pth (torch, 40651 bytes, 22 tensors)

conv_block_1.0.weight f4 [10, 3, 3, 3]
000000 42 ea 1d 3e 95 6a 2c 3e 0e 77 26 bd d9 04 31 3e
       0.15421394 0.16837533 -0.040640883 0.17287005
000010 dd ae 4b bd 28 eb 12 3d b8 d3 b2 bd b1 8b e9 3d
       -0.04972731 0.035868794 -0.087317884 0.11403597
000020 16 8b 2f 3e aa 25 0d be 78 08 2f 3e 18 e7 3e 3d
       0.17142901 -0.13783899 0.17093074 0.046607107
000030 c2 b7 0b 3e 24 c2 9e 3c b7 af bb 3d 6b 47 d3 bc
       0.13644317 0.019379683 0.09164374 -0.02579089
000040 a2 8c 17 3e a8 78 f4 3c 52 fe ae bd 7d 01 56 3d
       0.14799741 0.02984269 -0.085446015 0.052247513
000050 2b f9 a1 bd 83 3e c2 bc 4c c8 a9 bd fd 9d 01 3e
       -0.07908853 -0.023711449 -0.08290157 0.12657924
000060 ce 48 1c be 73 79 b3 bd c7 f7 5b bd 38 be e8 bd
       -0.15262148 -0.08763399 -0.053703096 -0.11364406
000070 b2 76 c3 3c 48 38 39 be f1 32 35 3e 93 b4 1f be
       0.02386031 -0.18087876 0.17695214 -0.15596227
000080 03 1c 21 3e 1e 9e 01 3d fd 00 64 bd 7b 88 ff 3d
       0.15733342 0.031644933 -0.055665005 0.124772035
000090 ae 26 0c 3d ef b3 28 3e c3 ab 04 3d b5 71 66 bd
       0.034216575 0.16474889 0.032390367 -0.056260783
0000a0 c5 5d 7e 3d 4f 1e 32 bd 80 b5 9f 3d 52 4d 33 3e
       0.062101144 -0.043485936 0.0779829 0.17509964
0000b0 b0 e4 e5 3d 4c 0d aa bd 98 a0 e3 3d b9 5e 10 3d
       0.11225259 -0.083033174 0.11114615 0.035246585
0000c0 96 f0 c6 3d 27 5b ea bd dc 81 43 be b3 3a a4 bd
       0.09713857 -0.11443167 -0.19092506 -0.080190085
0000d0 d2 53 18 be a5 a0 1d 3e ae 3f 7e 3d 41 20 b1 3d
       -0.14875725 0.15393312 0.06207245 0.0864873
0000e0 b9 73 84 3d 81 43 d6 b9 55 64 1c 3e 07 0a 0a be
       0.06467385 -0.00040867555 0.15272649 -0.13480388
0000f0 eb 7f 6d 3c 2b bc 04 be 58 4f 81 3d 04 c5 78 bd
       0.01449583 -0.12962405 0.06313962 -0.060734764
000100 1d 5e 7e 3d c5 1a 24 bd d2 a0 23 3e aa ed ea bd
       0.062101472 -0.040064592 0.15979317 -0.11471112
000110 43 97 ee bd c9 82 ea bd a3 10 30 3e b2 13 82 3d
       -0.11649945 -0.114507265 0.17193846 0.06351413
000120 01 83 43 3e 85 2f 1e be 18 c3 3e be 09 ae 19 be
       0.19092943 -0.15447815 -0.1862911 -0.15007795
000130 4d b0 01 be 8e b7 a0 3d d6 5a 8c 3d a0 e8 21 3e
       -0.1266491 0.0784751 0.06853263 0.15811396
000140 07 d3 cd bd fd 30 05 be af 13 d9 3d 90 d4 8c bd
       -0.10050016 -0.13006969 0.105994575 -0.068764806
000150 41 0d f9 3d 17 d2 24 bd 48 51 ef 3d 10 77 17 be
       0.12160731 -0.04023942 0.11685425 -0.14791512
000160 7a 6a c2 bd d7 91 80 3d 54 b2 1a 3d a3 f9 3b bd
       -0.09492965 0.06277817 0.037767723 -0.04589237
000170 14 da f2 3d a7 81 06 3e d0 99 0a be 55 29 c8 bd
       0.11858001 0.13135396 -0.13535237 -0.097735085
000180 d5 ee 2e 3e 24 06 7f bd ab 21 83 bd 97 5f 47 be
       0.17083295 -0.062261716 -0.06402906 -0.19470058
000190 e5 c2 e3 bd a1 5e 5b 3d 72 6f 04 bd cc 71 13 be
       -0.111211576 0.053557042 -0.032332845 -0.14398879
0001a0 2e 5b 30 3c 0d b3 05 be 97 b7 29 be 28 77 cd bd
       0.010763926 -0.13056584 -0.1657394 -0.10032493
0001b0 b7 93 29 be ea 72 ff bd fb a2 3a 3e 74 fb 17 3d
       -0.16560255 -0.1247309 0.18226235 0.03710504
0001c0 2d ba 69 3d 8c 27 3a be d6 81 fe bd e2 4f 75 bd
       0.057062317 -0.18179148 -0.12427108 -0.059890635
0001d0 ee 9a 1d 3d 61 f0 35 be 45 52 d2 bd ca 32 0d be
       0.03847783 -0.17767479 -0.10269598 -0.13788906
0001e0 88 fe 2b bc 1d ef a4 bd 8a 40 ac bc 1e e0 0a be
       -0.010497697 -0.0805342 -0.021026868 -0.13562056
0001f0 6e a1 03 be f3 5c d2 bd 84 bc 82 bd 71 9a 22 be
       -0.1285455 -0.10271635 -0.06383613 -0.15879227
000200 b4 66 15 3e c3 6a 32 bd 0e e9 1d 3e 74 ea 53 3d
       0.1458996 -0.043558847 0.15420935 0.051737264
000210 a5 b9 22 be ef e3 0e 3e 16 d7 2c bd f8 e7 a0 bd
       -0.1589113 0.13954137 -0.04219731 -0.078567445
000220 fb 85 29 be 7f 56 4b be 3d 28 52 3d e3 92 40 bd
       -0.16555016 -0.19857214 0.051307905 -0.047015082
000230 99 51 8d 3d 99 5d 25 be c1 d1 0d 3e 4e 79 11 be
       0.06900329 -0.16148986 0.13849546 -0.1420643
000240 a5 b9 1a bd 96 65 0d 3d 57 4a be 3d ad 5d 1b 3e
       -0.0377747 0.034520708 0.09291523 0.15172453
000250 ad d0 2e 3e 12 3f 21 be 33 10 3e 3d 18 3d af bd
       0.17071791 -0.15746716 0.046402168 -0.085565746
000260 0e b9 ad bc d4 4f 18 be b1 d1 2c 3e de 27 17 be
       -0.021206405 -0.14874202 0.16876866 -0.14761302
000270 42 84 cb 3d 2b 54 80 3d 3d 45 6a 3d 4f 68 da bd
       0.099373356 0.06266054 0.057194937 -0.106644265
000280 91 aa 2f 3e 9d 70 28 3d e6 60 b2 3c de a0 32 be
       0.1715491 0.04112302 0.02177472 -0.17444178
000290 cb a4 9b 3d 04 e7 0a bd f3 4f c7 bd 33 4a 23 3e
       0.07599791 -0.03391172 -0.09732046 0.15946274
0002a0 44 f5 0c 3d 02 09 e8 bd 4e ea d0 bd 3d 87 70 bc
       0.03441359 -0.11329843 -0.1020094 -0.014680681
0002b0 a7 bb c2 3d 86 63 80 bd 06 1c f7 bd 38 ef a4 bd
       0.09508448 -0.062689826 -0.12065892 -0.0805344
0002c0 43 86 21 be d0 49 65 3d 89 ce 0a 3e 5b 5c 48 be
       -0.15773873 0.055978596 0.1355535 -0.19566481
0002d0 ff 5a 17 3d 0d cf b9 3d 55 d3 be 3c 86 a8 9f bd
       0.036952015 0.09072695 0.02329413 -0.07795815
0002e0 8f 43 ae 3d 94 35 b5 3d d3 a3 6e 3d 51 75 42 bd
       0.085089795 0.0884811 0.058261704 -0.047475163
0002f0 2e e7 81 bd 64 48 82 3c d6 5c 1d bd 5b 5c 80 bd
       -0.06342922 0.01590366 -0.038418613 -0.062676154
000300 d0 95 f1 3d d8 32 20 3e bc 23 e9 bc 2c db 47 bd
       0.117961526 0.15644395 -0.028459422 -0.048793003
000310 2c 2a 9f bb f4 97 b0 bc e2 80 1d 3d 34 36 43 3d
       -0.004857322 -0.021556832 0.03845299 0.047659114
000320 de 57 39 be 68 94 9f bd 25 14 1e 3e cd ab 89 3d
       -0.18099925 -0.07791978 0.15437372 0.067222215
000330 b5 71 7e bc cb 35 fe bd de 62 04 be 54 05 3a be
       -0.01553004 -0.12412604 -0.1292834 -0.18166095
000340 e3 d1 8e bd 79 21 74 3d 67 89 eb 3d 05 c9 a4 3d
       -0.069736265 0.059602235 0.11500817 0.08046154
000350 36 d6 36 be 3c a7 fd bd 0e 13 26 bd 2c 12 33 3e
       -0.17855152 -0.12385413 -0.040545516 0.17487401
000360 2f cc 49 3c ed ca 80 bd 22 bc 8e 3d 6c 18 bb bd
       0.012316748 -0.06288705 0.06969477 -0.091355175
000370 05 e0 08 be 65 c5 0e 3e 60 54 d1 bd 7f fc 52 bd
       -0.13366707 0.13942488 -0.102211714 -0.05151033
000380 1d 1b 47 be 0f 4a ee 3d cf 55 0c 3e be 7f 76 3d
       -0.19443937 0.11635219 0.13704608 0.06018042
000390 d1 65 17 be 53 01 49 be e9 cf 1c be 84 30 07 3e
       -0.14784934 -0.19629411 -0.15313686 0.13202101
0003a0 16 c2 aa 3d 66 ca 25 3e a4 bd b9 3d 84 f3 2a 3d
       0.083378 0.1619049 0.09069374 0.04173614
0003b0 08 3a d7 bb 7c b3 23 be 10 3f 34 be 3e dd 38 be
       -0.006568197 -0.15986437 -0.17602181 -0.18053147
0003c0 96 c0 78 3d 2d 6c dd bd 86 da 32 bd e1 1d eb bd
       0.06073054 -0.108116485 -0.04366543 -0.11480308
0003d0 88 25 14 bd 82 ee 08 be 7f d1 06 be aa 35 64 3d
       -0.036168605 -0.13372234 -0.13165854 0.05571524
0003e0 13 99 86 bd ae 12 d8 3d b8 82 96 bd f8 09 16 be
       -0.06572165 0.10550438 -0.073491514 -0.1465224
0003f0 1a a4 35 bd fa 0a d9 bd da 0f 95 bd bd b1 49 be
       -0.044345953 -0.10597797 -0.07278414 -0.19696708

conv_block_1.0.bias f4 [10]
000000 9f b1 cc 3d 1d 01 43 be 6b 8c f7 3d d3 5c 17 3e
       0.09994816 -0.19043393 0.120873295 0.14781503
000010 97 fe 31 3e a8 57 38 bd 98 0e 1d be 3a a6 50 3d
       0.17382275 -0.04500547 -0.15337598 0.050939776
000020 3d f7 d9 3d ab d8 4d be
       0.1064286 -0.20102184

conv_block_1.1.weight f4 [10]
000000 85 43 80 3f b8 61 7e 3f b5 0b 7c 3f 8b 3f 81 3f
       1.0020605 0.99367857 0.98455364 1.0097517
000010 53 01 81 3f 39 28 80 3f 0a 4f 80 3f c6 fb 80 3f
       1.0078529 1.0012275 1.0024121 1.0076835
000020 7a ce 7d 3f 23 83 80 3f
       0.99143183 1.004002

conv_block_1.1.bias f4 [10]
000000 65 4d ce 3b b5 8e 8a bc f7 ea 33 bc 0b 1f 40 3c
       0.0062958472 -0.016913751 -0.010981313 0.011726151
000010 80 52 21 3c f4 c8 80 bb 45 51 1c 3c 91 a8 5c 3c
       0.00984633 -0.0039302055 0.009540861 0.013467924
000020 50 03 8d bb 7d 74 84 3b
       -0.0043033734 0.004042207

conv_block_1.1.running_mean f4 [10]
000000 67 e7 e7 3e 2c b9 84 bd a8 c2 f7 3d 06 43 0b be
       0.45293733 -0.06480631 0.120976746 -0.13599786
000010 70 07 a2 be 09 6e 11 be 9f 48 a0 be 4d 17 13 bd
       -0.316463 -0.14202131 -0.31305405 -0.035910893
000020 24 b4 12 be c0 e8 13 bf
       -0.1432653 -0.57777023

conv_block_1.1.running_var f4 [10]
000000 3c 1a 80 3d 0b c0 b8 3c 6a d9 95 3c d2 01 7d 3d
       0.06255004 0.02255251 0.018292148 0.061769314
000010 dc 5d da 3d 8e c2 c3 3c 01 df d3 3c 5b a0 a6 3c
       0.106624335 0.023896482 0.025863172 0.020340135
000020 92 c7 38 3d 38 3c 8b 3d
       0.0451122 0.06798595

conv_block_1.3.weight f4 [10, 10, 3, 3]
000000 71 2c 9f bc c6 b9 7c bd 2e 85 f1 bb aa 99 62 bd
       -0.019430371 -0.061700605 -0.0073706126 -0.055322327
000010 88 7a 43 bd 87 5f 0f bd 8e 6b cb bd 68 3b ac 3d
       -0.047724277 -0.03500321 -0.09932624 0.08409768
000020 8a 4a ad 3d 0d 0c ac bc b5 37 da bc b6 93 63 bd
       0.08461483 -0.02100184 -0.026637891 -0.05556079
000030 33 1e b8 bd 85 11 e8 bd ca 57 05 3d 50 f8 83 bd
       -0.08990135 -0.113314666 0.032554425 -0.06443846
000040 a5 74 97 bd 6d 4d 12 bc ed 7c 20 bd cf 8f 16 bd
       -0.07395295 -0.008929593 -0.03918164 -0.03675824
000050 c8 7a bd 3a bf 46 c8 bc be f4 13 bd 54 3a 50 bd
       0.0014456147 -0.024447797 -0.036122076 -0.050836876
000060 21 e2 c9 bd e6 bc a7 3d 71 71 2a bd 9b 20 a2 3c
       -0.09857584 0.081903264 -0.041612092 0.019790938
000070 c6 88 4e bd 70 1d 1c bb 21 99 b8 3d 98 76 15 3d
       -0.050423406 -0.0023821257 0.09013582 0.036490053
000080 ec 67 ca bd d1 69 0d 3d ba 04 b8 3d e5 ab b7 3c
       -0.09883103 0.034524743 0.089852765 0.022420833
000090 2b 66 76 3d 2a b1 bf 3d c0 75 fb bc da ef 5a 3c
       0.06015603 0.09359963 -0.030695796 0.013362849
0000a0 f8 57 ac bd 75 4d 17 bd 45 8d 94 3d dc 53 3f 3d
       -0.08415216 -0.036939103 0.072535075 0.046710834
0000b0 e2 00 98 bd 69 53 c1 bd 22 22 a9 bd 62 03 dc bd
       -0.074220434 -0.09439737 -0.082584634 -0.10742833
0000c0 4b 46 c2 bd d2 89 ff bc 54 53 8a 3d 81 f7 1a 3c
       -0.094860636 -0.031193648 0.06754175 0.009458424
0000d0 28 48 a7 bd 56 27 a8 bd 4a 0f 32 3d 79 3a af bd
       -0.081680596 -0.08210628 0.043471612 -0.08556075
0000e0 71 97 42 bc bd e2 37 3d 65 6f 55 bd 18 c2 03 bc
       -0.011876927 0.04489397 -0.052108187 -0.008041881
0000f0 4e ec 45 bc 5d 49 d8 bc 85 7e 47 bd 1c 36 cc bd
       -0.012080265 -0.02640217 -0.048704643 -0.09971258
000100 f8 79 b2 bd 1a 9c 56 bd 2b 2f ae 3d 40 48 76 bd
       -0.0871467 -0.052394964 0.0850509 -0.060127497
000110 37 7a a7 bd ae 36 bb 3c 6e f4 09 3d ad 48 68 3d
       -0.081776075 0.022853222 0.033680372 0.056709934
000120 52 3c 8f 3d 58 84 3a 3d cf aa dc bd 49 09 83 3b
       0.06993927 0.04553637 -0.10774767 0.0039989096
000130 b3 fd 6d 3d 78 3a ee bb 3b 2b 94 bd 36 35 b9 3d
       0.058103275 -0.0072701536 -0.07234808 0.09043352
000140 8a 0c 32 bd 9b c4 9d bd 27 14 e0 bd ff fa f2 bb
       -0.04346899 -0.07703515 -0.10941344 -0.007415175
000150 a0 03 05 3d 97 54 86 3c 98 d8 35 3c b3 0a b7 bd
       0.03247416 0.016397757 0.011099003 -0.089375876
000160 43 86 cd bd 5c b3 ab bb c5 bc c3 3d 46 55 7f 3d
       -0.10035374 -0.005239887 0.09557489 0.062337182
000170 5a 9d 70 bd 3b 88 58 bc 2c 5e 9d bd f0 b1 45 bd
       -0.058743812 -0.013216074 -0.076839775 -0.048265398
000180 ee 37 a6 3c 28 42 75 3d ac 30 b6 3d c3 5a c5 bd
       0.020290341 0.059877545 0.08896002 -0.09636452
000190 7a 04 93 3d ef ca a3 bd 14 f8 0c 3d ba 88 ae 3d
       0.07178588 -0.07997691 0.034416273 0.08522172
0001a0 01 e8 b3 ba 95 ba d9 3d 72 a4 ba bd 99 a0 28 bd
       -0.0013725759 0.10631291 -0.09113397 -0.041168783
0001b0 77 0a 51 3d eb 57 f9 bc d8 57 d9 bc 1a e7 59 bd
       0.05103537 -0.03043743 -0.026531145 -0.05319891
0001c0 da 6f 77 3d 01 41 1f 3d 4e 5b cc 3c 1a 83 7c bd
       0.060409404 0.038880352 0.024945881 -0.061648466
0001d0 66 55 b7 bd 89 c2 4f ba a4 da a8 3c 3d 56 78 bd
       -0.08951835 -0.00079254113 0.020612068 -0.06062912
0001e0 96 11 23 bd 95 3b 6f 3d 30 74 8e ba 57 ab c5 bb
       -0.039811693 0.05840643 -0.0010868367 -0.006032388
0001f0 c4 1a 1b bd e0 14 d5 bd d9 92 e3 bd f4 25 63 bd
       -0.037867323 -0.10404372 -0.11111993 -0.055456117
000200 f3 5f 83 bd b5 a3 b9 3c d5 5a 30 bd 51 16 6b bd
       -0.06414785 0.02266107 -0.043055374 -0.05739433
000210 a0 1c b3 3d 53 9d bc 3c 54 12 77 3d 9d b0 47 bd
       0.08745694 0.023024237 0.060320213 -0.048752416
000220 c0 be 33 bd 2b 8d 1a 3d f3 61 a2 bd 56 83 9e bd
       -0.043883085 0.037732285 -0.079288386 -0.07739894
000230 f2 ec c2 bb 80 8f 39 bd 78 d8 bc bd 38 53 3e 3d
       -0.0059486562 -0.045302868 -0.09220976 0.046466082
000240 31 96 88 3d 05 85 9e 3b 20 15 13 bd f3 df e0 bd
       0.06669272 0.0048376345 -0.03590882 -0.10980215
000250 bf a9 4a bd 7e 53 86 3c 5c 1a 0e 3d d4 76 f1 bc
       -0.04947829 0.016397234 0.034693107 -0.029475607
000260 6c 2e 5c bd ea e3 3d 3d 1a 55 bb bd ad fa 7e 3d
       -0.05375521 0.046359934 -0.09147091 0.06225078
000270 bb 6e 55 bd fc c6 f1 bb 7d 13 9a bc 04 47 7e bb
       -0.052107554 -0.007378457 -0.01880812 -0.0038799653
000280 95 4a 39 bd 88 47 71 3d 2e 66 61 bc 06 5b 8d 3d
       -0.045237143 0.05890611 -0.013757272 0.06902127
000290 7e 2f b3 3d e9 a0 83 bd 1c 77 b7 bd 6f ed 92 3d
       0.08749293 -0.064271756 -0.08958265 0.07174193
0002a0 9e 8c 8e 3d 23 ed bd bd ba a9 8e bc f9 d6 d7 bd
       0.06960414 -0.09273746 -0.017414916 -0.1053905
0002b0 aa c7 c2 bd bf 0d 05 3c ce 27 88 3c e7 52 11 3c
       -0.09510739 0.008120953 0.016620543 0.008869863
0002c0 e1 f3 2f bd 9a 4d ae 3d 9d 26 d3 3a aa c4 9c bd
       -0.04295719 0.08510895 0.001610953 -0.07654698
0002d0 9b 9d 70 bb 29 03 eb 3c b3 08 29 3d 02 b2 8c bd
       -0.0036715034 0.02868803 0.04126806 -0.0686989
0002e0 8f 9b 2a 3d 60 fe 51 bd 0d 40 a4 bd a9 83 49 bd
       0.04165226 -0.05126798 -0.08020029 -0.049197827
0002f0 67 78 dd 3d 89 a9 cb 3d 52 c1 cc 3d 29 da 89 3d
       0.108139805 0.09944446 0.099978104 0.06731064
000300 2d 1f ac 3d 0c 07 f3 bb 81 10 39 bd 52 dc 6e 3d
       0.08404384 -0.0074166115 -0.045181755 0.058315583
000310 84 e1 34 bd c6 57 7b bd 78 0d 22 bd 49 d4 c8 3c
       -0.04416038 -0.061363004 -0.039563626 0.024515288
000320 fa 12 83 3d 3e ca 37 bd 42 53 85 bd 7c 4d b4 3c
       0.06400104 -0.044870608 -0.06510021 0.022009604
000330 bd f1 5f bd 82 ff 7c bd 5c 15 84 3d f6 23 7b bc
       -0.0546739 -0.06176711 0.064493865 -0.015328398
000340 f9 a4 c6 3d 69 21 d2 3d df 8b 11 3d 0a 97 2a 3d
       0.09699435 0.10260279 0.035533782 0.04164795
000350 f7 c1 f0 3c ff 5c b7 3b d5 68 2e bb f1 ac 9f 3b
       0.029389365 0.005595803 -0.0026612778 0.004872911
000360 9e 09 22 3d 89 ef c5 3d ab 86 f9 bc fb d3 2d bd
       0.039559953 0.09664828 -0.030459723 -0.04243849
000370 09 77 bc bc 34 a7 48 bd 05 3d a8 3c 89 78 a9 3d
       -0.02300598 -0.048987582 0.020536909 0.082749434
000380 e0 db ac 3d 49 57 5b 3d fd b7 97 bd ae ad 5e bd
       0.08440375 0.05355004 -0.0740814 -0.054364853
000390 06 3d 72 bc af 04 87 bc f5 9d 5e 3c 40 78 ca bd
       -0.014785057 -0.016481725 0.013587465 -0.09886217
0003a0 16 3a ef 3c cf 2d b0 bd 15 f4 82 bd 8d 0f ad bd
       0.029202502 -0.08602487 -0.06394211 -0.08450232
0003b0 40 a4 bc 3d 12 1b c8 bd ae f5 ab 3d 4f ea 8c ba
       0.09211016 -0.09770788 0.08396469 -0.0010750982
0003c0 75 dc 34 bc 8a d9 89 3d 7c 91 04 bc 6c d1 6b 3d
       -0.011038889 0.067309454 -0.008091327 0.057572767
0003d0 82 af 8d 3d 7d fc a3 bd 23 e1 26 3d d6 0e ef 3c
       0.06918241 -0.08007143 0.04074205 0.029181879
0003e0 aa eb d3 3c a4 91 a5 3c 98 25 e2 3c 54 d5 47 bd
       0.02586921 0.020211048 0.027605817 -0.04878743
0003f0 a2 63 25 bc cb 0b cf 3d 16 e8 8c 3d 04 72 8e bb
       -0.010094555 0.10109671 0.068802044 -0.004347088

conv_block_1.3.bias f4 [10]
000000 34 00 89 b9 5b 86 3f 3c 26 1f a7 bd 64 3f 90 bd
       -0.00026130828 0.011689748 -0.08160238 -0.07043341
000010 9e 20 3f 3c 27 63 4a bd 3a 0e 9b ba a6 05 a6 bc
       0.011665491 -0.049410965 -0.0011829801 -0.020266365
000020 5c d4 85 3c bc 29 84 3d
       0.016336612 0.06453273

conv_block_2.0.weight f4 [10, 10, 3, 3]
000000 ab 99 c0 bc 42 15 a6 3d 37 77 bf 3d 92 ff 98 bd
       -0.023510775 0.08109523 0.0934891 -0.07470621
000010 f0 d8 b6 bd 7b 14 9f bd 0d 41 67 bd 39 8c 46 bd
       -0.08928096 -0.07767578 -0.05645852 -0.04847357
000020 e2 55 36 bc 3f 66 04 bd f1 67 7a bd 6a 9d 2d bd
       -0.0111288745 -0.032324072 -0.061134282 -0.04238645
000030 4f 2c 38 bd dc ce b6 3d 57 1a 3f bd f0 70 b4 bd
       -0.04496413 0.08926174 -0.04665598 -0.088106036
000040 53 65 09 3d 2b a4 1a bc 18 8f c8 3d 8b c1 97 3d
       0.033543896 -0.009438555 0.09792918 0.07409962
000050 50 e7 d5 3d 91 05 74 bd d9 49 9a 3d 82 72 c5 3d
       0.1044451 -0.05957562 0.075336166 0.09640981
000060 c3 70 20 bd 3c 41 e1 3d c2 ca b6 3d f6 f4 31 bc
       -0.039170038 0.109987706 0.08925392 -0.010861626
000070 69 5c 0a 3d ca 18 18 bd e6 3c cb bd 0f 11 e1 3c
       0.033779535 -0.037133016 -0.09923725 0.027473954
000080 bf 97 b0 3c e4 c5 9c bd f9 2e 3d 3d 38 94 ab bd
       0.021556733 -0.07654932 0.046187375 -0.0837788
000090 a9 f0 b1 3d bd c4 bb 3d 4b ac a2 3c f5 6d 85 bd
       0.086884804 0.09168384 0.019857546 -0.06515113
0000a0 2b a1 4a 3d 5d a3 9d 3c 9c 73 1e 3d 4d 2d 1d 3d
       0.049470108 0.019242937 0.038684472 0.03837328
0000b0 22 a7 b0 3d 3f ca 72 bd c6 f1 15 bd 9a d5 ee 3c
       0.08625628 -0.05927491 -0.036607526 0.029154588
0000c0 5e 73 64 3c f5 25 aa 3d 39 93 66 bd 80 01 22 3b
       0.013943521 0.08308021 -0.056292746 0.0024720132
0000d0 5f 71 e0 3c 72 8e a3 bc c5 ad 97 3d 7b 25 31 3c
       0.02739781 -0.019965384 0.07406191 0.010812159
0000e0 32 9c c9 bd 68 a2 dd bb 1a 2b 48 bd 2e 86 27 3c
       -0.09844245 -0.006763745 -0.04886923 0.010224862
0000f0 9e 03 a8 bb fd 3b d2 bd 1e d4 a5 bc df 7d 8d bc
       -0.0051273843 -0.10265348 -0.020242747 -0.017271934
000100 bc 43 0a bd 57 09 c6 3d e0 80 ac bc b0 09 7d 3d
       -0.033756003 0.0966975 -0.021057546 0.061776817
000110 c4 c8 9a 3c f0 7c af bd dc 98 e1 3c ba 19 ac 3d
       0.01889456 -0.08568752 0.02753871 0.084033445
000120 01 1b 91 bd 08 c9 90 bd c8 83 ce 3d 80 cb a2 3d
       -0.07085229 -0.07069594 0.10083729 0.07948971
000130 bf cd 82 bd 19 59 85 3d f6 5c 9b bc aa dd dc bd
       -0.06386899 0.06511135 -0.018965226 -0.107844666
000140 ec 76 09 bb 16 2e d5 3c 83 a4 28 bd 94 7b c8 3c
       -0.0020975424 0.026022952 -0.041172516 0.02447299
000150 ec 1b bc bd ef df 84 3d 56 11 a1 3d 44 51 5e 3d
       -0.09185013 0.064880244 0.07864635 0.05427672
000160 7c 4d 22 3c 49 d1 ae 3c 45 80 a8 bd 01 2f e9 bc
       0.009906169 0.02134003 -0.082275905 -0.028464796
000170 38 8f 2a bc 27 9b 95 bd fb 95 b6 bd 17 2e 7b 3d
       -0.010410123 -0.073049836 -0.08915325 0.06132325
000180 a4 11 7b 3d 28 66 c5 bd 38 99 ec 3c fc 91 f3 3c
       0.06129612 -0.096386254 0.028881654 0.029732697
000190 a2 c8 c4 3d 78 37 6c 3d 7b aa c8 3d c4 bc 21 bd
       0.0960858 0.057670087 0.097981416 -0.03948666
0001a0 54 f7 7d 3d 7a a7 98 3d f2 3b dc bd 0c 95 b7 bd
       0.06200345 0.074538186 -0.10753621 -0.08963975
0001b0 6d 17 cc 3c a9 d3 78 3d 9e 05 43 bd 53 60 93 3c
       0.024913514 0.06074873 -0.04761278 0.017990267
0001c0 3c 0e 16 3c a6 bd 15 3d 81 fc 62 bd 20 6a 73 3d
       0.009158667 0.036557816 -0.055416588 0.05942738
0001d0 51 ca 9f 3d aa f8 b1 bd e2 9d 8f bc a0 69 2f bc
       0.07802261 -0.08690007 -0.01753134 -0.010706335
0001e0 32 b5 11 3d 97 52 da 3d bb 7c c9 3c 21 d7 02 bd
       0.035573192 0.10660284 0.024595609 -0.031943444
0001f0 3b d8 b6 3d 55 a2 60 bd f5 dc df bc 41 d0 02 3c
       0.089279614 -0.054842312 -0.02732704 0.007984222
000200 ef 2a ad bd 86 d1 9f 3c 83 cc 75 bd 9b 9d ce 3b
       -0.084554546 0.019509088 -0.06000949 0.006305409
000210 64 2b 27 3c 75 41 61 3c 64 82 b6 bd 3e 3b ae bd
       0.010203216 0.013748516 -0.08911589 -0.08507393
000220 09 2d 4c 3d d1 14 ce 3d 70 a4 a1 bd cd c5 53 3d
       0.049847636 0.10062564 -0.07892692 0.05170231
000230 f6 01 85 bd 54 90 4c 3a f6 14 d5 3d ca 57 b9 3d
       -0.06494515 0.0007803489 0.104043886 0.090499476
000240 3f 45 88 bd 65 f9 97 3d e3 59 7e 3d ef 79 19 3c
       -0.06653833 0.07420615 0.06209744 0.00936745
000250 62 da e6 3d ab 56 1d bd 27 1f 5b bc 03 0d 37 bd
       0.11272122 -0.03841273 -0.0133741265 -0.044690143
000260 fd da d8 3c a2 e5 ed 3c 8b bf ed bb d9 15 74 bd
       0.02647161 0.029040162 -0.0072554997 -0.059591148
000270 b1 b8 49 bd 31 84 f0 3c 57 e2 bf bd 10 4b 95 bc
       -0.0492484 0.029359909 -0.09369343 -0.01822427
000280 85 3f f8 ba 15 64 14 bd 19 80 45 3d f4 7b 26 3c
       -0.0018939829 -0.03622826 0.048217867 0.010161389
000290 86 ab 9e 3d 12 fd 39 ba e2 7e 6f bd fd 40 a6 3d
       0.07747559 -0.00070949004 -0.058470614 0.08117864
0002a0 0b 00 dd 3c f0 40 88 bc 48 fd 5a bd 8b aa a5 3c
       0.02697756 -0.016632527 -0.053464204 0.020222923
0002b0 18 67 d3 bd c3 89 b4 3c 78 17 2f 3d 76 cf bf bd
       -0.10322398 0.022038346 0.04274699 -0.09365742
0002c0 0d f1 88 bd 51 65 b1 bd 63 50 af 3d 7c 0d bf 3d
       -0.06686602 -0.08661903 0.085602544 0.09328744
0002d0 c9 5f 82 bb 0f 5f c4 3d 54 c5 11 bd 49 be d3 bd
       -0.0039787036 0.095884435 -0.035588577 -0.103390284
0002e0 46 14 18 3d bd 9e 0f 3d 71 b9 d5 3d c9 eb 2f bb
       0.03712871 0.035063494 0.10435761 -0.002684342
0002f0 df 85 a1 3d 32 06 55 3d d1 fc 71 3d 06 5f f7 bd
       0.07886862 0.05200786 0.059078995 -0.12078671
000300 ee ef 91 3d 2b fd c6 bd 04 fa a7 3d ae 19 69 bc
       0.07125841 -0.09716257 0.082019836 -0.014227314
000310 eb ba d4 bd a4 9f 46 3c f0 0d b6 bc c3 8d c5 bd
       -0.10387214 0.012123022 -0.022223443 -0.096461795
000320 25 8f 28 bd 89 da 46 3c 49 2a a5 3d 88 2c 0a bd
       -0.04115214 0.012137064 0.08064706 -0.033733875
000330 db b6 89 3d a1 7a 6d 3c 31 73 61 3b 5c 2d a1 3c
       0.0672433 0.014494569 0.0034400935 0.01967495
000340 72 50 96 bd 31 0a c1 bd f5 46 34 bd 3c 16 e2 bd
       -0.073395625 -0.09425772 -0.044012982 -0.11039397
000350 c7 2e 88 bd e4 ef a7 bb 81 e4 a7 bd af c1 5a bd
       -0.06649547 -0.0051250327 -0.081978805 -0.053407367
000360 2c 01 d5 bc d7 e7 96 bc b7 c1 88 bd 70 70 6b 3b
       -0.026001535 -0.018421097 -0.06677573 0.0035925172
000370 1d bb 8c bc 26 2e cc 3c 47 a6 53 3a ef e0 5c bd
       -0.017179066 0.024924349 0.00080737885 -0.05392545
000380 54 73 2c bd 24 6d d5 3a e8 ca 63 bd 0b 0a 21 3c
       -0.042102173 0.0016283137 -0.05561343 0.009829055
000390 04 18 89 bc 81 aa 27 3d ba 4c cf 3c 5f 22 96 3d
       -0.016735084 0.04093409 0.02530514 0.073307745
0003a0 72 db 97 3b d2 b2 8f bd 72 ad 4d 3d 37 16 8b bd
       0.004634314 -0.07016529 0.05021424 -0.067913465
0003b0 80 c9 33 bc 16 68 fb bc 83 36 1b bd a6 96 14 bd
       -0.010973334 -0.03068928 -0.037893783 -0.036276482
0003c0 aa da c9 3d 34 f1 82 3d 7b 0b 08 3d 4a c1 c9 3d
       0.0985616 0.06393662 0.033214074 0.0985132
0003d0 dd 2c c4 bd ab 91 64 3c 51 2e 80 3d f3 1b 86 3d
       -0.095788695 0.013950746 0.06258834 0.065483
0003e0 fa d8 bc bd ec 2e b2 3c 42 1b 8e bd 98 d4 90 bc
       -0.092210725 0.02175089 -0.06938793 -0.017679498
0003f0 10 8f d3 bc c8 c9 be bd 79 aa c4 bd 2e 00 84 bd
       -0.025825053 -0.093158305 -0.096028276 -0.06445347

conv_block_2.0.bias f4 [10]
000000 10 39 0a 3d 22 0b de bc b9 64 0b 3d 4e d1 a7 3d
       0.033745825 -0.027104918 0.034031603 0.081942186
000010 da b5 76 bd bd 19 5d bd dd 72 31 3d 24 c6 c2 3b
       -0.06023202 -0.053979624 0.043322433 0.0059440304
000020 cb da 9d bc 3d 0e c6 bd
       -0.019269368 -0.096706845

conv_block_2.1.weight f4 [10]
000000 1a 23 80 3f ec 57 80 3f c2 19 80 3f 66 8f 7d 3f
       1.0010712 1.0026832 1.0007861 0.99046934
000010 7d 18 81 3f 72 e4 7d 3f 42 d4 81 3f d2 63 80 3f
       1.0085598 0.99176705 1.0142901 1.0030463
000020 61 73 7e 3f 2f c3 7d 3f
       0.99394804 0.9912595

conv_block_2.1.bias f4 [10]
000000 03 b1 94 3b 34 17 80 3b e5 7a a3 3b 05 a0 2b bc
       0.004537703 0.003909016 0.0049890154 -0.010475163
000010 1e e7 07 bb 70 46 86 bc 95 66 ec 3b 9d b9 04 3c
       -0.0020737122 -0.01639101 0.007214377 0.008100894
000020 17 94 37 bb 3e fd 3f bc
       -0.0028011852 -0.0117180925

conv_block_2.1.running_mean f4 [10]
000000 85 5d 75 3e 09 93 af bc 85 99 b3 3c d1 3c fc 3e
       0.23961456 -0.021432417 0.02192379 0.4926515
000010 4b cb af bd 25 04 04 be d3 4e 47 3c 96 8c 50 be
       -0.08583697 -0.12892206 0.012164789 -0.2036613
000020 e8 39 92 be 91 52 17 be
       -0.28559804 -0.1477759

conv_block_2.1.running_var f4 [10]
000000 97 b7 8c 3d ec 54 d9 3c ef 11 f4 3c 82 90 6a 3e
       0.068709545 0.026529752 0.029793708 0.22906688
000010 89 34 e6 3c ca bb 0e 3d c7 e2 8c 3d 2b 29 da 3d
       0.028101223 0.03484706 0.06879192 0.106523834
000020 a7 15 87 3d 05 f4 fb 3c
       0.06595927 0.030756006

conv_block_2.3.weight f4 [10, 10, 3, 3]
000000 89 85 d2 3d 46 5e 5a 3b af 43 70 bc 08 4c 16 bd
       0.10279376 0.0033320352 -0.0146645745 -0.036693603
000010 da 46 11 bc 4e 0d 6f 3d ea f3 98 ba ba b1 c0 3d
       -0.00886699 0.058362298 -0.0011669372 0.09408899
000020 74 ec 62 3a 31 05 8d bc 52 72 7b 3d bb 5e d9 ba
       0.000865645 -0.01721439 0.06138832 -0.0016584018
000030 00 37 ca bc bd 05 0f 3d c2 65 b4 3d cc 9e f6 3c
       -0.02468443 0.03491758 0.08808471 0.030105017
000040 3e 96 82 3d 13 83 89 3d 63 3c f0 3c 7d 11 dd 3c
       0.06376313 0.067144535 0.02932567 0.026985878
000050 82 cc 01 3d 0f f9 8b 3c 84 a9 ac 3d 1c 7f b9 3d
       0.031689174 0.017086534 0.0843077 0.09057447
000060 9b 37 1b 3d a7 8d b0 bb d4 87 bc 3d 25 9d 8e bd
       0.037894826 -0.00538798 0.09205595 -0.06963567
000070 ff d9 b4 3d f3 27 82 3d 5a 59 9f 3d 38 7f 05 3b
       0.08830642 0.06355276 0.07780714 0.0020370018
000080 2d 6d 9d bd 48 ba a4 3d d0 a3 3c bd 57 60 d7 3c
       -0.07686839 0.08043343 -0.04605466 0.026291056
000090 7c 56 8e 3d b8 ff bf bd f3 f7 8f 3c 39 79 c2 bc
       0.06950089 -0.09374946 0.017574286 -0.023739444
0000a0 9d 8c a4 3d 45 e1 76 bd 9f a6 8e 3d 60 94 a1 3d
       0.08034632 -0.060273428 0.06965374 0.078896284
0000b0 c0 02 8a 3d 17 d3 b7 3d 9d 3c 5d 3b a2 61 de bd
       0.06738806 0.08975809 0.0033758052 -0.10858466
0000c0 ff a8 5b 3d 9b 49 06 bc b1 c4 9c bc 7e 7c d6 bd
       0.053627964 -0.00819626 -0.019136759 -0.10472964
0000d0 53 3f 19 bd af 6d 81 bd 16 ca cf 3d 55 ac 94 3d
       -0.037413906 -0.063197486 0.10145967 0.07259432
0000e0 2e da 95 3d d9 52 a4 3d c3 48 75 bd 54 34 36 bd
       0.07317005 0.080236144 -0.059883844 -0.044483498
0000f0 e2 cd 3a bd 8d 99 15 bd e4 9b ad 3d 85 b1 a2 3c
       -0.0456065 -0.03652339 0.084769994 0.019860039
000100 50 fb 9a 3d 67 f6 61 bc 5b 09 e1 bd 32 da 3a bd
       0.07567465 -0.013791657 -0.109881125 -0.045618244
000110 f3 04 7f 3d e0 c1 59 3d b6 86 91 3c 14 f7 47 bd
       0.06226058 0.05316341 0.01776443 -0.048819616
000120 2a 65 ce bd ac 46 57 bd 1c dc 7b 3d ae a1 37 bd
       -0.10077889 -0.052557632 0.06148921 -0.044831924
000130 8b 70 5d 3d ad 25 f5 3c 25 77 0a bd 39 95 87 3d
       0.054062407 0.029925192 -0.03380503 0.06620259
000140 c1 a0 cd bc e9 75 a9 bc 1d 19 22 bd 2f ee bb bd
       -0.025101067 -0.020686107 -0.03957473 -0.09176289
000150 de 46 da 3b ef c5 e7 3c cb 5d 2f bd 3b 71 7f 3d
       0.00666128 0.028292624 -0.042814057 0.062363844
000160 fe 1d c4 bd 48 a0 da bd 0f 1c 77 bd 55 dd 05 bd
       -0.09576033 -0.106751025 -0.060329493 -0.03268178
000170 f4 de 47 bc fb 0e 76 bc 2f 19 4f 3d 51 68 bc bd
       -0.012199152 -0.01501822 0.050561126 -0.09199584
000180 30 cb 6c 3c bc b9 38 3c 22 50 ff 3c ce 81 e4 3d
       0.014452741 0.011274751 0.03116614 0.11157571
000190 80 e8 90 3d 14 f3 43 bd 71 ba a7 bd 5c 0e 1e bc
       0.07075596 -0.04783924 -0.08189858 -0.009646978
0001a0 ec aa 29 bd ff 83 20 3d d3 6e 0c bb ea 53 bc 3d
       -0.04142277 0.03918838 -0.002142836 0.09195693
0001b0 ef 68 39 3d e1 7a 11 bc d9 1e 79 3c 94 a5 92 3c
       0.045266088 -0.008879394 0.015205109 0.01790122
0001c0 2e cd 3a bc 70 f6 af 3d c4 3a a9 bd ba 34 26 3d
       -0.011401458 0.08591926 -0.08263162 0.040577628
0001d0 88 00 94 bd 27 57 9e bd 30 7a e8 bb 7d 70 7f 3d
       -0.07226664 -0.07731467 -0.007094644 0.062363137
0001e0 ae af bc 3d d0 fe 2d 3d 74 81 7b 3b 2e 24 29 3c
       0.09213196 0.042479336 0.003837672 0.010323567
0001f0 48 1c ef bc 7e 51 59 3b af 45 ab 3a eb 78 b7 3d
       -0.02918829 0.0033160145 0.0013067032 0.0895861
000200 e9 53 84 3d ab af 9c bd cc 4c 33 3c f3 d8 71 bd
       0.06461317 -0.076506935 0.010943603 -0.05904479
000210 96 28 0a bc b0 55 91 bd 8a 0a 1c 3d 3d f7 9c bd
       -0.008432528 -0.07096422 0.03809599 -0.076643445
000220 35 55 b4 3d 8b c1 9d 3d 53 76 af bd 2a 5e d8 bd
       0.088053145 0.07702931 -0.085674904 -0.10564835
000230 27 ed 49 bb 94 c8 10 bd e3 d8 9b 3c 3b 08 a9 bd
       -0.003081152 -0.035347536 0.019024318 -0.08253523
000240 94 4a 26 3d 13 46 bf bd 32 49 8a bd 61 c3 6c bd
       0.040598467 -0.093395375 -0.06752242 -0.057803515
000250 1f fe 36 3d dd af 29 bc 8a 3b d7 bd 17 79 6b bd
       0.044675943 -0.0103568705 -0.10509403 -0.057488527
000260 59 28 58 bd 0a ff f6 bd 8b a4 08 bc b1 89 97 3c
       -0.052772854 -0.120603636 -0.008340011 0.018498274
000270 1d 9c 1e bd 3e e3 72 bd d2 17 a1 bc 93 a4 c4 bd
       -0.0387231 -0.059298746 -0.019664679 -0.096017025
000280 56 04 a2 bd b1 37 a7 bc bd e0 bc 3d 5a d6 d2 bc
       -0.07910983 -0.020412298 0.09222553 -0.025736976
000290 c6 36 49 3d fe fd 2c bd 76 f6 cd bc 22 0d c7 bd
       0.0491245 -0.042234413 -0.025141936 -0.09719302
0002a0 1c e2 a6 3d d5 9d cb 3d 57 bb 76 bb 0b a1 5a 3d
       0.08148596 0.099422134 -0.0037648284 0.05337624
0002b0 23 27 87 3d 6a 26 0c 3d 1c a9 20 3d 7e d8 e8 bd
       0.065992616 0.034216322 0.039223775 -0.113694176
0002c0 cf 3f e3 bd 58 85 ac bd b9 e3 04 3d f8 f5 d1 bd
       -0.11096155 -0.08423871 0.032443736 -0.10251993
0002d0 46 f6 ba bd 93 66 5b bd 9f 81 cc bd 31 36 29 bc
       -0.09129004 -0.05356462 -0.09985661 -0.010327862
0002e0 9b eb 75 3a 6e c6 7f bd f8 f3 7a 3d b8 2f 49 bd
       0.0009381116 -0.062445097 0.061267823 -0.049117774
0002f0 27 e3 05 bd 25 bf a9 3d cf 65 ba 3d f9 f8 81 bc
       -0.032687332 0.08288411 0.0910145 -0.01586579
000300 a8 bd b7 bd 24 f1 55 bd 0c 61 88 3c 6d 1c 7a 3d
       -0.08971721 -0.052231923 0.016647838 0.061062265
000310 dd 30 77 3d 27 c1 21 bd 06 c2 c7 bd 51 5a bf bd
       0.060349334 -0.039490845 -0.09753804 -0.09343398
000320 12 b0 3e bd 57 1b b6 b9 69 79 3d bd 65 4a c2 bd
       -0.046554632 -0.00034734115 -0.046258364 -0.09486846
000330 41 87 02 3b 7a 0f c3 bd 30 83 b5 bd 45 fc b5 bd
       0.0019917043 -0.09524436 -0.08862913 -0.08886007
000340 ac f7 06 bd 88 1a b9 3d 22 80 16 3d 8b e9 79 bc
       -0.032951042 0.090382636 0.03674329 -0.015253435
000350 a3 77 a3 3c 81 bb 15 3d 02 23 e2 b8 72 97 b1 bd
       0.019954508 0.03655577 -0.000107830405 -0.08671464
000360 1b 35 70 bd 46 64 86 bd f0 10 93 3a 2c 41 bc bd
       -0.058644395 -0.065620944 0.0011220258 -0.09192118
000370 b3 05 78 bc a5 5d 13 bd c0 1b d0 3d 1a 0d bd 3d
       -0.015138078 -0.03597798 0.10161543 0.092310145
000380 35 16 7e 3d 09 8b d7 3b e0 e3 0a bd 94 18 0a 3d
       0.062032897 0.0065778536 -0.033908725 0.033714846
000390 aa 88 94 bd c4 24 36 bd 00 de 4b bc 29 1f 83 bc
       -0.07252629 -0.044468656 -0.012443066 -0.01600607
0003a0 ba ce c2 bd 02 8d 6a 3d 46 94 9d 3d b1 96 82 bd
       -0.09512086 0.05726338 0.076942965 -0.06376398
0003b0 a5 17 c0 3c ae 0e b8 bc ac 26 c5 bb 4b 95 92 3b
       0.023448775 -0.022467937 -0.006016573 0.0044733635
0003c0 03 b8 a5 3d 4b fd 24 3c c0 92 90 bd f4 98 e1 bc
       0.08091738 0.010070155 -0.0705924 -0.027538754
0003d0 da c2 3d 3d ab f0 ee 3c 90 05 71 3c e9 6c f5 bb
       0.046328403 0.029167494 0.014710799 -0.0074897897
0003e0 c3 3e 3c bd cc f7 ce bc e8 f0 4c bd 3e f1 a7 3c
       -0.04595829 -0.025264643 -0.050034434 0.020500775
0003f0 8a 09 e6 3c 42 fa 9e 3d f2 87 71 bc 96 05 1e 3c
       0.02808072 0.07762577 -0.014741885 0.0096448865

conv_block_2.3.bias f4 [10]
000000 fa 93 b9 3d 0c 9d b1 3d e5 88 05 3d 92 90 d6 bd
       0.090614274 0.086725324 0.032601256 -0.10476793
000010 2d 10 72 3c 29 32 37 bd bd 06 e5 bc 4b 7b a2 3d
       0.014774364 -0.04472557 -0.027957315 0.079336725
000020 15 fa 0a bd 4c b1 96 bd
       -0.033929903 -0.073580354

conv_block_2.4.weight f4 [10]
000000 f0 f9 7e 3f a8 8e 7c 3f 64 2e 7c 3f 07 43 7d 3f
       0.99600124 0.98655176 0.98508286 0.989304
000010 9e 01 7d 3f 0e 1b 7a 3f 2d bf 7c 3f 1e 54 7c 3f
       0.9883059 0.9769753 0.9872921 0.9856585
000020 eb 9f 79 3f 45 99 7c 3f
       0.9750964 0.9867137

conv_block_2.4.bias f4 [10]
000000 51 5c fe bb ad 93 7a bc 92 9d 38 bc 3f 57 36 bc
       -0.00776247 -0.015293998 -0.011268036 -0.0111291995
000010 24 a0 74 bc 9a 13 8d bc 2b 24 40 bc b2 0a 7d bc
       -0.014930759 -0.01722126 -0.011727373 -0.0154444445
000020 b9 9d c1 bc 6a c9 12 bc
       -0.023634778 -0.008959154

conv_block_2.4.running_mean f4 [10]
000000 df 8e e2 3e 65 09 8b be f0 22 0f be a3 c2 c0 be
       0.44249627 -0.27155605 -0.13978171 -0.37648496
000010 df 0c 2d 3d 7f 7a a0 3e ee fe 9a be 92 1f 4d 3e
       0.042248603 0.31343457 -0.3027262 0.20031574
000020 43 67 95 bd 09 6b 26 be
       -0.07295086 -0.16251768

conv_block_2.4.running_var f4 [10]
000000 5b e1 8b 3e 9c fb 41 3e 26 d8 49 3e 8f 95 8e 3e
       0.2732037 0.18943638 0.1971136 0.2784848
000010 2a ca fd 3d 6e 4a 03 3e 90 af c9 3e fa a9 62 3e
       0.12392075 0.12821361 0.39391756 0.22135153
000020 12 f0 d4 3d 2b d8 5e 3e
       0.10397352 0.21762149

classifier.1.weight f4 [3, 1690]
000000 7e 87 f5 bc 72 07 2e 3c 4d 4a 04 bb f0 6d b2 3c
       -0.029971834 0.010621892 -0.0020185888 0.021780938
000010 51 07 0e 3c 6a 1f a9 bc 00 66 ab 3b 2e 41 ba 3c
       0.008668737 -0.020644862 0.005230665 0.022736158
000020 5a cc 69 3c e9 c7 c1 3b f6 c9 bc bc 33 d8 99 bc
       0.014269913 0.0059137237 -0.023045521 -0.01877985
000030 fc 2f 29 3c 9b 0a dc bc 52 6e 3b 3b 46 08 a8 bb
       0.010326382 -0.026860526 0.0028599692 -0.0051279394
000040 44 2f b5 3b 7e 17 3f 3b a9 07 72 bc ea 0d 30 bc
       0.005529316 0.002915829 -0.014772334 -0.010745505
000050 a2 24 92 3c e9 d8 d1 ba 23 d4 19 3c b2 09 8b bc
       0.017839734 -0.0016010079 0.009388956 -0.016972397
000060 01 0e 67 3c 5c d4 04 bc fb 8f 6b bc 84 f1 c0 ba
       0.01410246 -0.008107271 -0.014377589 -0.0014720415
000070 88 eb 27 bc 0e b0 69 bc 94 b1 1b bc 3e 14 b5 bb
       -0.010249026 -0.014263166 -0.009502787 -0.0055260947
000080 bc d0 9c bc 23 c9 67 ba d5 fa 06 bd 32 d0 42 3c
       -0.019142501 -0.00088419224 -0.032954056 0.011890458
000090 70 28 bb 3c 8a 69 0e 3b 23 50 df bb 37 08 da bc
       0.02284643 0.0021730387 -0.006814973 -0.026615245
0000a0 20 03 15 3c 96 1d 75 3c 63 0e 66 3c a2 aa b4 ba
       0.009094983 0.014960667 0.014041516 -0.0013783763
0000b0 00 2d 14 3b 88 fb 7c 3c e9 26 e9 bb 26 41 9f bc
       0.002260983 0.015440829 -0.007115234 -0.019440245
0000c0 ff e0 d1 bc 9d 6c 0f 3c 8f 9f e0 3b c6 1b 8b 3c
       -0.025619982 0.008753923 0.0068549584 0.016981017
0000d0 3d d9 63 bc 7b 27 5f 3b d0 01 75 bc 90 b1 63 bc
       -0.013906774 0.0034050632 -0.014954045 -0.013897315
0000e0 5b 74 b2 3b ee ce fe bc 31 48 09 3c 0b 00 ea 3a
       0.0054459996 -0.031104531 0.008379028 0.0017852796
0000f0 18 1a 98 bc 30 0b 39 3c 9d 4b b4 bb 92 e3 91 3b
       -0.01856713 0.011294171 -0.005502178 0.0044521773
000100 4e 8e e1 bb c8 17 d5 bc cf 60 15 bc 94 50 91 3b
       -0.006883419 -0.026012316 -0.009117319 0.0044346545
000110 38 ba 2d bc 10 97 92 bc 5d 27 b2 bb 76 c4 94 38
       -0.01060348 -0.017894298 -0.0054368214 7.093784e-05
000120 5c 14 29 bc 37 53 ac bc b8 c4 10 bc 6e 5c 8c ba
       -0.010319795 -0.021035774 -0.008835964 -0.0010708699
000130 26 3d 34 3c 31 f0 c6 3c 7f fb 99 ba fd 4c b9 3a
       0.011000907 0.024284454 -0.0011747925 0.0014137324
000140 7d 5e 00 3c 97 38 85 bc 8a 61 2a bc d4 31 0f 3c
       0.007835028 -0.016262336 -0.010399232 0.008739907
000150 cb 75 57 3c 49 12 93 ba f6 46 af bc a1 df 9c 3c
       0.013150643 -0.0011220659 -0.021396141 0.019149603
000160 57 f1 8a bc 40 65 66 3c 1e 82 06 3b 18 40 02 3c
       -0.016960783 0.014062226 0.0020524333 0.007949851
000170 f5 b2 e4 bc ea d0 65 bc b0 fa eb 3b c9 c1 6d 3c
       -0.027917365 -0.01402686 0.007201515 0.014511534
000180 6a 63 67 bc e3 41 3d 3c 20 73 53 bc ef da a3 bc
       -0.014122823 0.011551353 -0.012905866 -0.020001857
000190 74 6c 0b bc 66 c1 69 3b c7 7e 19 bb 68 3c 39 3c
       -0.008509744 0.0035668253 -0.0023421512 0.011305906
0001a0 e6 3f 55 bc 83 3a 0e bc 60 9a f6 bc 70 31 8a 3c
       -0.013015723 -0.0086809425 -0.030102909 0.016869277
0001b0 ab 10 07 bc 74 25 c7 bc 06 f3 21 bc f7 c6 f7 bb
       -0.00824372 -0.024309851 -0.009884601 -0.0075615603
0001c0 0b 2b c6 3b 11 65 17 bb 6f ab 36 3c 44 d3 e7 bb
       0.0060476116 -0.0023101012 0.011149271 -0.0070747454
0001d0 bf 74 e8 bb fd b3 95 bb d3 f3 65 3b f8 6f 89 3c
       -0.0070939953 -0.0045685754 0.0035087958 0.016777024
0001e0 d1 22 97 bb 80 bb 74 3c dc 6f 7c 3c 16 dd 95 bc
       -0.0046123047 0.014937282 0.015407529 -0.018293899
0001f0 8f a3 11 bc f8 19 7f bc ff 20 25 3c b4 15 41 bc
       -0.008889093 -0.015570156 0.010078668 -0.01178496
000200 58 5d 12 3c f7 a3 8b 3b 4e 47 8d bc 36 c8 95 bc
       0.008933388 0.0042614895 -0.017245915 -0.018283945
000210 47 6f dd bc b3 7e 79 bc 35 ef 07 3c db 7a 0f 3a
       -0.0270306 -0.015227961 0.0082967775 0.0005473324
000220 30 f3 6e 3c 1d bd d0 bc 40 cc 5b ba bd 80 c8 bc
       0.014584348 -0.025480801 -0.00083846226 -0.02447545
000230 fa b7 21 bb 92 8c 1f 3c a1 a2 25 bc 73 7c c7 3c
       -0.002467631 0.009738104 -0.0101095745 0.024351334
000240 77 8b ad bb 0b eb c7 3c 71 86 ac ba c4 e4 80 3c
       -0.0052961665 0.02440407 -0.0013162625 0.015734084
000250 a2 f0 d6 3c 2b fc e2 bb c7 fc da ba 52 b7 5d 3c
       0.02623779 -0.0069270334 -0.0016707414 0.0135324765
000260 c5 31 97 bc e5 15 a9 3c a9 0c 02 bc 7d fd 07 3d
       -0.01845635 0.020640323 -0.007937589 0.03320073
000270 1e 01 85 bc 46 a1 f4 bb 85 38 c5 3c 7b 46 ab bb
       -0.016235884 -0.0074655144 0.024074802 -0.005226908
000280 fa 5e bf 3c eb 32 8a 3c 2a 64 ba 3c 74 5b b1 bc
       0.023360718 0.016869983 0.02275284 -0.021650054
000290 ad d4 36 39 d5 d4 f4 bb 36 8f 26 3c c9 46 3c bc
       0.000174361 -0.0074716606 0.01016598 -0.011491486
0002a0 2e bf 11 3c 92 5b 81 bb 47 8b 63 bc b2 43 bd bc
       0.008895678 -0.0039476836 -0.013888187 -0.023103569
0002b0 b0 25 44 3c 03 e6 1e bc 8c b5 8b 3c d0 d7 57 3b
       0.011971876 -0.009698394 0.017054342 0.003293503
0002c0 bc 45 24 3c 67 50 5d bb 0a db 91 b8 0e 66 96 bb
       0.010026392 -0.0033769847 -6.954938e-05 -0.0045898026
0002d0 71 03 aa bc 7e 61 66 3c ec 62 9c bc 18 89 77 3c
       -0.020753594 0.01406133 -0.019090138 0.015108369
0002e0 fd 17 8d bb 68 c8 94 3c fa 49 db 3c b8 0d 37 bc
       -0.004305838 0.018161967 0.026768673 -0.011172704
0002f0 45 7a c7 3c 4b 09 e7 3a 9d 58 85 bc df f6 36 3c
       0.024350295 0.0017626671 -0.016277606 0.011167257
000300 56 c8 9b 3c 13 44 8e 3c d3 67 cc bc a3 ec a1 3c
       0.019016426 0.017366445 -0.024951851 0.019766157
000310 bb 7a 95 3c fe 5b ce 3c b1 4c fe 3b 1d 45 91 bc
       0.018246999 0.02519035 0.007760607 -0.017733151
000320 8a d3 4c 3c d9 fb 8f 3c 18 d7 2d bc 82 b6 a2 ba
       0.012501607 0.017576145 -0.010610364 -0.0012414011
000330 ff b7 ce 3c 0b b7 b0 3c 51 a7 a4 3c 0a 1f 96 3c
       0.02523422 0.021571657 0.020099314 0.018325347
000340 70 e3 40 bc 89 05 00 bc c0 ac 43 bc 8e 68 3c 3c
       -0.011772975 -0.00781382 -0.011943042 0.011499537
000350 f2 e4 2a 3a dc c6 a8 bc 9e 4e 8e bb 0d 52 b1 bc
       0.0006519101 -0.020602636 -0.004342868 -0.02164557
000360 86 62 a3 bc a5 76 c6 3c 14 71 61 bc 57 2b 49 3c
       -0.01994444 0.024226496 -0.01375987 0.012278399
000370 b8 c6 27 bb 4d da 04 bc 68 50 14 bb f7 29 5e 3c
       -0.0025600623 -0.008108688 -0.0022630934 0.01355981
000380 3a 0a d2 bb 8b b0 87 3c d2 c9 5d 3c ea d6 8c 3c
       -0.0064099105 0.016563674 0.013536887 0.017192323
000390 7f c9 d4 bc a2 e8 45 bc e6 55 83 bc 10 3e b3 bb
       -0.025974987 -0.01207939 -0.01603217 -0.005470045
0003a0 73 ca cc bb da a5 ca 3b 0d 13 aa 3c 99 a3 a6 3b
       -0.0062497198 0.006184322 0.020761037 0.0050854203
0003b0 6e 98 97 bc bf 33 9b bc 8b a7 6b 3c dc 60 c0 39
       -0.018505301 -0.018945573 0.014383207 0.0003669326
0003c0 c4 33 d6 3b 8c fd 47 bc 1f 72 43 3a 28 47 08 3c
       0.0065369327 -0.012206446 0.0007455665 0.008317746
0003d0 02 ab 74 bc 63 e8 8d 3c 85 af 6c 3c cd 07 9b bc
       -0.01493335 0.017322725 0.014446144 -0.018924618
0003e0 af 96 20 bc 59 0a 00 bc 75 6f 66 3b 7b 8a 44 bc
       -0.009801551 -0.007814967 0.0035161648 -0.011995907
0003f0 84 aa af 3c 38 2a c4 bc 75 07 62 bc 5a 69 69 bc
       0.021443613 -0.023945913 -0.013795723 -0.014246309

classifier.1.bias f4 [3]
000000 4d 69 16 3c 60 7a 05 bc 94 61 ab bc
       0.009180379 -0.008146852 -0.020920552
